src/models/training/lstm_model.pth (torch, 133237 bytes, 9 tensors)

lstm.weight_ih_l0 f4 [200, 7]
0	0x3e17a367	0.14808427
1	0x3df7d323	0.12100818
2	0x3ca0ba01	0.019619944
3	0x3e26be7c	0.16283602
4	0x3e996bab	0.29964957
5	0x3cd51948	0.026013032
6	0xbc637150	-0.013881996
7	0x3d179357	0.03700575
8	0x3e18efdb	0.14935248
9	0x3d7f860e	0.062383704
10	0x3d60c19d	0.054872144
11	0x3dc5af0a	0.09652527
12	0xbe07e639	-0.13271417
13	0x3db611b4	0.08890095
14	0x3ddaba8e	0.10680114
15	0x3e1f02f6	0.15528473
16	0x3a212cb8	0.0006148326
17	0xbe0a528d	-0.13508053
18	0x3e1b2ab7	0.15153013
19	0x3c3efa20	0.011656314
20	0xbd8416ef	-0.06449687
21	0xbda77eeb	-0.081785046
22	0xbdb4e541	-0.08832789
23	0xbce8c334	-0.028413393
24	0xbe14a27f	-0.14515112
25	0x3d5132a9	0.051073704
26	0x3cda5a60	0.026654422
27	0x3ddda152	0.10821785
28	0xbd4df1c3	-0.05027939
29	0xbd8e71d3	-0.06955304
30	0x3dad619a	0.08465882
31	0x3e1316bb	0.1436414
32	0xbe0fccab	-0.14042918
33	0xbc333b60	-0.010939449
34	0x3e0f9235	0.14020617
35	0xbdbec097	-0.09314077
36	0x3d70d177	0.05879351
37	0x3de3e702	0.111280456
38	0xbdf93593	-0.121684216
39	0x3df46a5f	0.11934351
40	0x3dbd4cce	0.09243165
41	0x3d2027a4	0.039100304
42	0xbc983c5d	-0.018583471
43	0x3dd20508	0.10254866
44	0xbdc67c46	-0.09691672
45	0xbe0fc380	-0.14039421
46	0xbd9676c7	-0.07346874
47	0x3de3819e	0.11108707
48	0xbdeeb926	-0.11656408
49	0x3d3ba5d8	0.045812458
50	0x3da80fa4	0.08206108
51	0xbdd44467	-0.10364609
52	0xbd9ff06e	-0.0780953
53	0x3dcdd8c5	0.10051111
54	0xbc485760	-0.012227863
55	0xbdbbcff8	-0.09170526
56	0xba06f8b0	-0.00051487517
57	0xbcc1d138	-0.023659334
58	0x3e019774	0.12655431
59	0xbdd84bf3	-0.10561361
60	0x3e84b9e7	0.25923082
61	0xbbfa40a0	-0.0076370984
62	0x3d35269c	0.044226274
63	0x3d09ca82	0.033640392
64	0xbd329c5c	-0.043606147
65	0x3bc0396b	0.0058662198
66	0x3e0eed88	0.13957798
67	0x3ebf3cba	0.37351018
68	0x3db68e20	0.08913827
69	0x3db04920	0.086076975
70	0xbdbe79b6	-0.09300558
71	0x3df8acd0	0.12142336
72	0x3d18c635	0.0372984
73	0x3a70e744	0.00091897347
74	0xbd0db4be	-0.034596197
75	0x3d039a94	0.03212984
76	0xbd20c938	-0.039254397
77	0x3dcc4337	0.09973758
78	0x3c54d62c	0.012990516
79	0x3d132654	0.035925224
80	0xbe02d27e	-0.12775609
81	0x3c9f0eb8	0.019416198
82	0x3d15d418	0.03657922
83	0xbc63f3b0	-0.01391308
84	0xbc356147	-0.011070556
85	0x3dd72931	0.105059035
86	0xbb71af0c	-0.0036878018
87	0xbe24124a	-0.16022602
88	0xbc8a6b3f	-0.016896842
89	0x3dd4d1ac	0.10391554
90	0x3d0c0bc8	0.034190923
91	0xbd2ce460	-0.042209983
92	0x3db01c2c	0.08599123
93	0x3dbaa053	0.09112611
94	0x3cc8cd6f	0.02451202
95	0x3e132c54	0.14372379
96	0x3d33e174	0.04391618
97	0x3dc51938	0.09623951
98	0x3d93707c	0.07199189
99	0xbb3a8379	-0.0028459711
100	0x3e204bb6	0.15653881
101	0xbd533bac	-0.05157058
102	0x3dff27e6	0.12458782
103	0x3d310bb0	0.043224037
104	0xbddd079e	-0.107924685
105	0x3d53d71d	0.05171882
106	0x3d8eb0ab	0.069672905
107	0x3dd5b935	0.10435716
108	0xbd3eafa7	-0.046554234
109	0x3e3c893b	0.18411724
110	0x3e023c8f	0.12718414
111	0xbc09da10	-0.008413807
112	0x3de30cc2	0.11086418
113	0xbc6efc89	-0.014586576
114	0xbd1e2948	-0.038613588
115	0xbdb9d883	-0.090744995
116	0x3d20361e	0.03911411
117	0xbdbbdaa7	-0.09172564
118	0x3cef78b8	0.029232368
119	0x3e2c4948	0.1682483
120	0xbb166da4	-0.0022953534
121	0x3d8356b4	0.06413022
122	0xbbad3d63	-0.005286859
123	0x3d9faeb6	0.07796995
124	0x3d42810c	0.04748635
125	0xbd0ec39c	-0.034854516
126	0x3d174b5a	0.036937095
127	0x3e156b84	0.14591795
128	0x3807c30c	3.236816e-05
129	0xbdc5f52e	-0.09665905
130	0xbda08796	-0.07838361
131	0xbb9ba840	-0.0047502816
132	0x3a925980	0.0011165589
133	0x3e29c95b	0.16580717
134	0x3e474329	0.19459213
135	0x3db987c9	0.09059102
136	0x3d7a4719	0.06110296
137	0x3d73f20a	0.059557
138	0xbd50aeaa	-0.050947823
139	0xbd4b72da	-0.049670078
140	0x3d218ab8	0.039438933
141	0xbd3fc712	-0.046820708
142	0xbc326070	-0.01088725
143	0x3e6552e6	0.22394904
144	0x3e224033	0.15844803
145	0xbc1b44c0	-0.0094768405
146	0x3adfc400	0.0017071962
147	0x3e0edbfb	0.13951103
148	0x3e15b80b	0.14620988
149	0x3da0d309	0.07852752
150	0xbddd1cdd	-0.10796521
151	0x3e62f887	0.22165118
152	0x3c97b750	0.018520027
153	0xbd9fde07	-0.0780602
154	0x3d848aac	0.06471762
155	0xbd044c5e	-0.032299392
156	0x3dadeed2	0.08492817
157	0xbdbab16b	-0.09115871
158	0x3e828b53	0.2549692
159	0x3dca148e	0.09867202
160	0xbdc6886a	-0.09693988
161	0xbd038fab	-0.032119434
162	0x3d999431	0.074989684
163	0xbe0104cc	-0.12599486
164	0xbdcdcbda	-0.10048647
165	0x3eac6e97	0.33678123
166	0xbd16ce28	-0.0368177
167	0xbd96d9d3	-0.073657654
168	0x3e691d10	0.22764993
169	0x3d1bcf5d	0.038039554
170	0x3d8c7250	0.06857741
171	0x3a835cad	0.0010022126
172	0xbd3c62aa	-0.04599253
173	0x3db7b9cc	0.08970985
174	0x3d27b480	0.040943623
175	0x3cea3882	0.028591398
176	0x3c39b445	0.0113344835
177	0xbd3d4697	-0.046209898
178	0x3d360ae4	0.04444398
179	0x3eb08d89	0.34482983
180	0xbe008efc	-0.12554544
181	0x3cdcdee0	0.026961744
182	0x3c8dc9c4	0.017308123
183	0xbda106ab	-0.078626
184	0x3e1d820d	0.15381642
185	0xbda48f99	-0.080352016
186	0x3ec579cb	0.38569483
187	0xbdc7ffe4	-0.09765604
188	0xbd6405b4	-0.0556695
189	0x3e10e005	0.14147957
190	0x3e35d449	0.17756762
191	0x3e57dd5e	0.21080539
192	0x3db6fc46	0.08934836
193	0x3e59ce72	0.21270159
194	0x3cebed90	0.028799802
195	0x3db21884	0.08696082
196	0x3e32944f	0.17439388
197	0x3cef1a2c	0.029187284
198	0xbc341952	-0.010992365
199	0x3d82bc1f	0.063835375
200	0x3cf66982	0.030079607
201	0x3d724368	0.059146315
202	0xbdf15c62	-0.11785199
203	0x3d3f32c7	0.046679284
204	0xbdf01a8e	-0.11723815
205	0x3dcaaa54	0.09895769
206	0xbdca9abf	-0.09892797
207	0x37dff0c0	2.669578e-05
208	0xbdb67943	-0.089098476
209	0x3e08fdf1	0.13378121
210	0xbcdab0c1	-0.026695611
211	0xbd936cc2	-0.07198478
212	0x3db4cdc7	0.088283114
213	0x3d1031f8	0.035203904
214	0x3e3149f2	0.17313364
215	0xbd770494	-0.0603071
216	0xbda1c7b4	-0.078994185
217	0xbe1543bb	-0.14576618
218	0xbdb9dd76	-0.090754434
219	0x3dfff9e8	0.12498838
220	0xbdf6680c	-0.12031564
221	0x3cd3aa22	0.025837962
222	0xbdef1429	-0.11673767
223	0x3d3fc200	0.046815872
224	0x3e293c16	0.16526827
225	0x3d812c4c	0.06307277
226	0x3e033816	0.12814364
227	0xbd32818b	-0.043580573
228	0xbd9de27e	-0.077092156
229	0x3b895b40	0.004191786
230	0x3d98b342	0.07456066
231	0x3c6c445d	0.014420596
232	0xbe1a74f6	-0.1508368
233	0xbdc3f6e8	-0.09568578
234	0x3dc8bc2f	0.09801518
235	0x3ded079e	0.115737185
236	0xbcfa0a00	-0.030522346
237	0xbd62a782	-0.05533553
238	0xbe19e568	-0.15028918
239	0xbd36c75a	-0.04462371
240	0xbdf58648	-0.11988503
241	0x3da84d57	0.082178764
242	0xbc0ca35f	-0.008583873
243	0xbc1b0bb0	-0.009463236
244	0x3d92bc80	0.0716486
245	0xbc94ea1f	-0.018178044
246	0x3de29a87	0.1106463
247	0x3c9b6a2f	0.01897153
248	0x3bb5231b	0.0055278665
249	0x3dcd5058	0.1002509
250	0xbdfa4cfa	-0.12221713
251	0xbdf4e8b4	-0.11958447
252	0xbe0c2de0	-0.13689375
253	0xbd5e7922	-0.05431474
254	0x3e0a1e81	0.13488199
255	0xbca640f1	-0.020294638

lstm.weight_hh_l0 f4 [200, 50]
0	0x3d508f5e	0.050917976
1	0xbd26b64a	-0.04070119
2	0x3d2b5c24	0.04183592
3	0xbd8ad6d4	-0.067792565
4	0x3e1c38c3	0.15256028
5	0x3d82c4f2	0.063852206
6	0x3de69a2c	0.11259875
7	0xbe0b359d	-0.1359467
8	0x3d0a9408	0.03383258
9	0xbdb3ea99	-0.0878498
10	0xbc3df09e	-0.011593012
11	0xbd3b126d	-0.04567187
12	0xbe0ca79a	-0.1373581
13	0x3e0e24b4	0.13881189
14	0x3bc22bf6	0.0059256507
15	0xbe0f91fb	-0.14020531
16	0x3dd62444	0.10456136
17	0xbbe86e00	-0.007093191
18	0xbd3673af	-0.04454392
19	0xbde998c1	-0.114060886
20	0x3e058d2b	0.13042133
21	0x3d9aeeab	0.075650536
22	0xbb37f0d5	-0.002806713
23	0x3d81b2f1	0.063329585
24	0x3e1685f5	0.14699538
25	0xbd3583d0	-0.04431516
26	0xbd74032e	-0.059573345
27	0x3dcd241a	0.100166515
28	0x3d5d1d32	0.05398292
29	0xbd6281b5	-0.05529948
30	0xbc95cf3c	-0.018287294
31	0x3deabfba	0.1146235
32	0xbca0598d	-0.019573951
33	0x3e113882	0.14181712
34	0x3d3a59a3	0.04549564
35	0xbdf0d349	-0.117590494
36	0xbd44c6a5	-0.048041005
37	0x3da3cc2b	0.07997926
38	0x3dc839b7	0.09776633
39	0xbcda44a8	-0.026644066
40	0x3d511630	0.05104655
41	0x3d0d1917	0.034447756
42	0xbd1e84bb	-0.0387008
43	0xbe2635a2	-0.16231397
44	0xbd968590	-0.07349694
45	0xbd973982	-0.073840156
46	0x3da45aab	0.08025106
47	0x3e1919a6	0.1495119
48	0x3db31c36	0.08745615
49	0x3e2be3f7	0.1678618
50	0xbc4ff7ea	-0.012693385
51	0x3d91ea20	0.07124734
52	0x3db13646	0.0865293
53	0xbdf61ce4	-0.12017229
54	0xbd71b8f9	-0.059014294
55	0x3df54e97	0.119778804
56	0xbd3fa273	-0.046785783
57	0x3dd341e9	0.10315306
58	0x3d89e2af	0.067326896
59	0x3de7ed92	0.1132461
60	0x3d4ad5e5	0.049520392
61	0xbd054829	-0.03253952
62	0xbdd4cc7a	-0.10390563
63	0x3e275d1b	0.1634411
64	0xbdc6591c	-0.09684965
65	0x3da361e9	0.07977659
66	0xbe109b2f	-0.14121698
67	0x3dcc3ced	0.09972558
68	0x3db21354	0.08695093
69	0xbd010bc2	-0.031505354
70	0xbd3ed325	-0.046588082
71	0xbdd86046	-0.10565238
72	0x3dbb6b49	0.091513224
73	0x3d3e0982	0.046395786
74	0x3d479c4e	0.04873305
75	0x3dab2864	0.08357313
76	0xbceab025	-0.028648445
77	0xbbee39f4	-0.007270092
78	0x3cd834d0	0.02639237
79	0xbe16a970	-0.14713073
80	0x3e26733a	0.16254893
81	0xbda30502	-0.079599395
82	0x3c4f3d61	0.012648911
83	0x3e2ab8ef	0.16672109
84	0xbd9fbe39	-0.07799954
85	0x3d49ebc0	0.049297094
86	0xbd2b1d44	-0.041775957
87	0xbca360c4	-0.019943602
88	0xbd835c35	-0.064140715
89	0xbcc329be	-0.023823615
90	0x3df56860	0.119827986
91	0x3d42ddae	0.04757469
92	0x3cce94e1	0.025217475
93	0x3cd0ac93	0.025472915
94	0x3c450a6c	0.012026411
95	0x3d8cef2d	0.06881557
96	0xbe03136f	-0.12800382
97	0x3df7fa21	0.12108255
98	0x3d9032b7	0.07040923
99	0xbd90043a	-0.07032056
100	0xbdf982dd	-0.12183163
101	0x3c997a14	0.01873497
102	0xbde752c3	-0.112950824
103	0x3d403cc9	0.04693297
104	0xbdf23f27	-0.118284516
105	0x3d9d5842	0.076828495
106	0xbd88100d	-0.066436864
107	0x3e000d1a	0.12504998
108	0x3e12b7d5	0.14327939
109	0xbd002831	-0.03128833
110	0xbd9c771c	-0.07639906
111	0xbc670550	-0.014100388
112	0xbc9d6bfd	-0.019216532
113	0x3d759a63	0.059961688
114	0xbdde7548	-0.108622134
115	0x3e04d1df	0.12970684
116	0xbdac6fe8	-0.08419782
117	0xbdd4143a	-0.103554204
118	0x3d80ecb5	0.06295148
119	0xbe16e7be	-0.1473684
120	0xbc6aa43e	-0.014321385
121	0xbda5a6c1	-0.080884464
122	0xbd9f6396	-0.077826664
123	0xbdcfea76	-0.10152142
124	0x3d168a21	0.036752824
125	0x3d904048	0.07043511
126	0x3d5d52d5	0.054034073
127	0xbc96a49b	-0.018389037
128	0x3dde7548	0.108622134
129	0x3e08f93f	0.1337633
130	0xbde8fdbb	-0.1137652
131	0x3d0855ff	0.033285137
132	0xbd2b04d6	-0.04175266
133	0xbe1a7e5e	-0.15087268
134	0xbe1044c9	-0.1408874
135	0xbd85a554	-0.065256745
136	0x3da496e9	0.08036596
137	0xbc190dde	-0.009341685
138	0x3da18879	0.07887358
139	0x3d278d65	0.04090633
140	0x3dab5374	0.08365527
141	0x3dd5ddb1	0.10442675
142	0x3d3914bb	0.045185786
143	0x3de2b01a	0.11068745
144	0xbd34b40c	-0.04411702
145	0x3c9d91a5	0.019234488
146	0x3d6b0b2e	0.05738371
147	0x3cde05ea	0.02710243
148	0xbdbcac46	-0.09212546
149	0x3d970246	0.073734805
150	0x3d8d2fed	0.06893907
151	0x3b909316	0.0044120653
152	0xbd9fa9be	-0.07796048
153	0x3dae9e26	0.08526258
154	0x3d9cc646	0.07655005
155	0xbde052c6	-0.10953288
156	0x3d4597d0	0.048240483
157	0x3cde8999	0.027165221
158	0xbe215a32	-0.15757063
159	0xbc4b9fce	-0.012428237
160	0xbd593c6b	-0.053036135
161	0xbd440ed5	-0.047865707
162	0xbd7dff0d	-0.062010814
163	0x3d69030c	0.05688767
164	0xbdc450a2	-0.09585692
165	0xbb801756	-0.003909032
166	0xbe0d11a9	-0.13776268
167	0xbd8719fa	-0.065967515
168	0xbdb5ee9d	-0.088834025
169	0xbd684f0e	-0.056716017
170	0xbaf48138	-0.0018654233
171	0x3e177f26	0.14794597
172	0xbdce42b2	-0.10071315
173	0x3dee73d5	0.11643187
174	0x3dd7dd97	0.10540312
175	0x3c96ff80	0.018432379
176	0x3dc0824f	0.093998544
177	0xbd863c7d	-0.06554506
178	0xbd721ef3	-0.059111547
179	0xbdc2f31a	-0.09519024
180	0x3d98f76b	0.07469066
181	0xbd8890a6	-0.066682145
182	0x3de9d5bf	0.11417722
183	0xbd2737b7	-0.04082462
184	0x3c51ecab	0.012812774
185	0x3de52b86	0.11189942
186	0x3dc4c32e	0.0960754
187	0xbda94140	-0.082643986
188	0x3d1a6cd2	0.037701435
189	0xbc957a8a	-0.018246908
190	0xbd316de4	-0.04331769
191	0x3ca99a94	0.020703591
192	0x3e04ec47	0.12980758
193	0xbdb4ad9d	-0.088221766
194	0xbdffe64d	-0.12495098
195	0x3dc605d1	0.09669078
196	0xbbfc53a0	-0.0077003986
197	0xbd17c52a	-0.037053265
198	0x3ddebb72	0.10875596
199	0x3d64972c	0.05580823
200	0xbd060189	-0.032716308
201	0xbd656c82	-0.056011684
202	0xbdd18d89	-0.10232074
203	0x3ca431b8	0.020043239
204	0x3d14e554	0.036351517
205	0x3ddc557b	0.107584916
206	0x3d965dc5	0.07342104
207	0xbdbd06ff	-0.0922985
208	0x3b9022aa	0.0043986635
209	0x3df89423	0.1213763
210	0xbd40c3ba	-0.04706166
211	0xbcace0fe	-0.021103378
212	0x3c464957	0.0121024465
213	0x3d8b7d24	0.06810978
214	0x3d4959a3	0.04915775
215	0x3c955e8c	0.01823356
216	0xbdead7b7	-0.114669256
217	0xbdfd2895	-0.12361256
218	0x3d68913d	0.056779135
219	0x3d05bba8	0.032649666
220	0xbdd1c956	-0.1024348
221	0x3de23895	0.110459484
222	0x3c5728d1	0.01313229
223	0xbcd2d38d	-0.02573564
224	0xbc7a6dc1	-0.015284956
225	0x3c70d58c	0.014699351
226	0xbde65f99	-0.112487026
227	0x3cef5809	0.029216783
228	0xbdf33ff5	-0.11877433
229	0xbcb5750f	-0.022150544
230	0xbcde7b88	-0.027158514
231	0x3e40bdfa	0.1882247
232	0xbc8cbbdd	-0.017179424
233	0x3d24a924	0.040200368
234	0x3c368e62	0.011142345
235	0x3deb502a	0.114898995
236	0xbcc957b5	-0.024577955
237	0x3b91042b	0.0044255457
238	0xbddba253	-0.1072432
239	0xbe019ec6	-0.12658224
240	0x3d1df1cc	0.038560674
241	0xbe1d4195	-0.15357049
242	0xbe13b285	-0.14423569
243	0x3c353edc	0.01106235
244	0x3d692b4b	0.056926053
245	0x3ce6c641	0.028170707
246	0x3cb492ad	0.022042597
247	0x3dd5205e	0.10406564
248	0x3da5cf29	0.08096153
249	0xbd179da2	-0.037015565
250	0xbdd7b064	-0.10531691
251	0xbd5515f6	-0.052022897
252	0xbd865d49	-0.065607615
253	0xbe018519	-0.12648429
254	0x3ded40e1	0.1158464
255	0xbd29c253	-0.041445088

lstm.bias_ih_l0 f4 [200]
0	0x3cfe5304	0.031045444
1	0x3e19124b	0.14948384
2	0x3dc415b2	0.095744506
3	0x3de4f599	0.111796565
4	0xbde1ef74	-0.11032
5	0xbdff29f3	-0.12459173
6	0xbdf5e6e5	-0.1200693
7	0xbddc79b9	-0.10765404
8	0x3c51f2d8	0.012814246
9	0xbaa74209	-0.0012760769
10	0x3c733d5d	0.014846173
11	0xbddcf234	-0.10788384
12	0xbd8b42cc	-0.0679985
13	0x3e02c191	0.12769152
14	0x3de80b7d	0.11330316
15	0xbcdc0858	-0.026859447
16	0x3e1d0a34	0.15335923
17	0xbe06529b	-0.13117449
18	0xbdc1a9be	-0.09456204
19	0xbda15931	-0.0787834
20	0x3ddf30eb	0.10898002
21	0x3d240f14	0.040053442
22	0x39736466	0.00023211687
23	0xbd9e55ed	-0.07731233
24	0xbd73421d	-0.059389222
25	0x3e2feb97	0.17179714
26	0xbbb22cc7	-0.005437467
27	0x3d677008	0.056503326
28	0x3dc5ce53	0.09658494
29	0xbc31da9f	-0.010855346
30	0xbc8624ce	-0.016374972
31	0xbd2ff4a2	-0.04295791
32	0xbcbf0a81	-0.023320438
33	0x3ca8a4d0	0.020586401
34	0x3d53a1b0	0.05166787
35	0xbd609778	-0.05483195
36	0x3e18a8bb	0.14908116
37	0xbd3f475a	-0.046698906
38	0xbd7e59c9	-0.062097345
39	0xbafd1ca3	-0.0019310903
40	0x3e0b686a	0.1361405
41	0xbc23c52f	-0.009995743
42	0x3b0ca22d	0.002145897
43	0x3d705fa2	0.058684953
44	0xbc49820e	-0.012299074
45	0xbd89ee53	-0.0673491
46	0x3db0ddd9	0.08636064
47	0xbd9e73b6	-0.07736914
48	0x3dae7a09	0.0851937
49	0x3de81c7a	0.113335565
50	0x3e28818c	0.16455668
51	0x3e076918	0.13223684
52	0x3c81dd54	0.015852608
53	0x3dddd40d	0.10831461
54	0xbdc775a8	-0.09739238
55	0x3d17a39b	0.03702126
56	0xbd9579df	-0.07298636
57	0xbe046d63	-0.12932353
58	0x3de8f0b8	0.113740385
59	0xbe0e62b8	-0.13904846
60	0xbe03208c	-0.12805384
61	0x3dce9c2b	0.100883804
62	0xbc03bce7	-0.008040643
63	0x3d191c5c	0.03738056
64	0xbc8931a2	-0.0167473
65	0x3d80bc0c	0.06285867
66	0xbd52e97b	-0.051492196
67	0xbcd1e446	-0.025621545
68	0xbda07b2c	-0.07835993
69	0x3d986bd5	0.07442442
70	0xbba20a4d	-0.0049450756
71	0xbd3ee2a4	-0.04660286
72	0x3cb812f8	0.022469983
73	0xbdab3889	-0.083603926
74	0x3de68f5d	0.11257813
75	0xbd66bb23	-0.05633081
76	0x3da5f0ff	0.08102607
77	0x3da3def3	0.080015086
78	0xbde2489a	-0.11049004
79	0x3d82b779	0.06382651
80	0x3ded7491	0.11594499
81	0xbe25375c	-0.16134399
82	0xbc8afe40	-0.016966939
83	0xbdfc4bee	-0.1231917
84	0x3daf8bc1	0.08571578
85	0xbd84e2be	-0.0648856
86	0x3d0eb4c6	0.034840368
87	0x3de73d07	0.11290937
88	0xbdc88d64	-0.09792593
89	0x3d07befd	0.033141125
90	0xbd60fda3	-0.054929387
91	0x3dbac5b8	0.09119743
92	0xbe05c20d	-0.13062306
93	0xbde8408b	-0.113404356
94	0x3e1e9d00	0.15489578
95	0xbe09b5cc	-0.13448256
96	0x3d3d4252	0.046205826
97	0xbc5dda9e	-0.013540892
98	0xbc2a3af9	-0.010390037
99	0xbdcfd284	-0.101475745
100	0xbc9fe762	-0.019519512
101	0x3d2419b7	0.040063586
102	0x3d64a587	0.05582192
103	0xbd067c58	-0.032833427
104	0xbc66541f	-0.014058142
105	0x3caa8f09	0.020820158
106	0x3dc692eb	0.09695991
107	0xbdfa0f24	-0.12209919
108	0x3d31f919	0.04345045
109	0xbbd3ef71	-0.0064677526
110	0x3cf116f2	0.029429886
111	0xbde2cdc5	-0.11074404
112	0x3ce6b535	0.028162578
113	0x3d7ac246	0.06122043
114	0x3d3317d9	0.043723915
115	0xbd9ea1d7	-0.07745712
116	0xbdb06dd2	-0.086146966
117	0xbe060ff2	-0.1309202
118	0x3bd4bce8	0.006492246
119	0xbdf4f999	-0.119616695
120	0xbd7e4816	-0.062080465
121	0xbd68f28b	-0.056871932
122	0xbd2d2753	-0.04227383
123	0x3c482759	0.012216412
124	0xbbe14b09	-0.0068754
125	0xbe24e1d9	-0.16101779
126	0xbcd9f96d	-0.026608193
127	0xbe05168a	-0.12996879
128	0x3def0027	0.11669951
129	0xbe048ac8	-0.12943566
130	0xbd360af9	-0.044444058
131	0x3dbd4da2	0.09243323
132	0x3d80acea	0.06282981
133	0x3d697baf	0.05700272
134	0xbd124f74	-0.035720304
135	0x3dd720d5	0.10504309
136	0xba847725	-0.0010106309
137	0x3c09d79a	0.00841322
138	0xb8b25fdc	-8.5055566e-05
139	0x3dc95821	0.098312624
140	0xbd07d6f7	-0.03316399
141	0xbd5b9fa5	-0.053619046
142	0xbdb90c9a	-0.09035607
143	0xbe0e3dc8	-0.13890755
144	0x3d82b399	0.06381912
145	0xbdd65eaf	-0.10467278
146	0xbdcdbaff	-0.10045432
147	0xbd31f62b	-0.043447655
148	0x3d899ba8	0.06719142
149	0x3df0b7a4	0.11753777
150	0x3e23a7cf	0.15981983
151	0x3e0ffd75	0.1406153
152	0x3dd67d95	0.104731716
153	0x3d5e6051	0.054291073
154	0x3cdbd4f7	0.026834948
155	0x3e0ab85f	0.13546894
156	0x3ddaec7f	0.10689639
157	0xbe14b9fe	-0.14524075
158	0x3d016ace	0.031595998
159	0x3de15715	0.11002938
160	0xbdf89674	-0.12138072
161	0xbc2430dc	-0.010021415
162	0x3e1cd25b	0.15314619
163	0x3e0eb970	0.13937926
164	0xbc2b32bd	-0.010449109
165	0xbdb50139	-0.08838124
166	0xbddb03e2	-0.106941
167	0xbda051f0	-0.07828128
168	0x3cbadefa	0.022811402
169	0x3da93c2c	0.0826343
170	0xbc737064	-0.014858339
171	0x3de9bac8	0.11412579
172	0xbd21674a	-0.039405145
173	0xbe0874d7	-0.13325821
174	0x3cd3d03e	0.025856134
175	0x3e39093a	0.18069926
176	0x3d717b30	0.05895537
177	0x3da628b8	0.08113235
178	0xbdcd1e42	-0.10015537
179	0xbca42cba	-0.020040859
180	0xbcb856af	-0.022502271
181	0x3d313cc5	0.043270845
182	0x3dd85107	0.1056233
183	0xbdd12503	-0.102121376
184	0x3dee5c51	0.11638702
185	0xbd92fc9b	-0.07177087
186	0xbdb3d6b3	-0.08781185
187	0x3d8348f8	0.06410402
188	0xbd246892	-0.04013879
189	0xbe070f99	-0.13189544
190	0x3bcf220b	0.006321197
191	0xbc3e2a52	-0.01160677
192	0xbe0d05e3	-0.13771777
193	0xbdf17a7d	-0.11790941
194	0xbdb57e03	-0.088619255
195	0x3df82584	0.121165305
196	0x3bdff295	0.006834338
197	0xbdac042e	-0.08399235
198	0x3ddc6920	0.107622385
199	0x3d89e0cf	0.06732332

lstm.bias_hh_l0 f4 [200]
0	0x3e357240	0.17719364
1	0x3de5a047	0.11212211
2	0x3c78cc87	0.015185482
3	0xbd3edc18	-0.046596617
4	0xbdfff2f6	-0.12497513
5	0x3dedf378	0.116187036
6	0xbda77a66	-0.081776425
7	0x3e01b3a9	0.12666191
8	0x3e1365d9	0.1439432
9	0x3dd4f961	0.10399128
10	0x3d3a2fba	0.04545567
11	0x3e1ecbfe	0.15507504
12	0x3d94fa93	0.07274356
13	0xbcb37554	-0.021906532
14	0xbdbe1d22	-0.092829004
15	0xbd96692e	-0.0734428
16	0xbd5030c5	-0.05082776
17	0x3d06bbb9	0.03289387
18	0x3c48dbe7	0.01225946
19	0xbd4799f6	-0.048730813
20	0x3dc1c07d	0.09460542
21	0xbd7f6b5b	-0.06235824
22	0x3dabaa05	0.08382038
23	0xbdc1f7cd	-0.094710924
24	0xbd680327	-0.05664363
25	0x3d8dc106	0.06921582
26	0x3d5e083b	0.054207068
27	0x3e67d2f3	0.22639064
28	0xbddd180b	-0.107956015
29	0x3d897603	0.06711962
30	0x3d289337	0.04115602
31	0x3dd24afe	0.1026821
32	0x3d857939	0.06517262
33	0xbd0fd825	-0.03511824
34	0xbd8e0822	-0.06935145
35	0x3df8357f	0.121195786
36	0x3e004048	0.12524521
37	0xbd56ea32	-0.05246944
38	0xbd77ca5b	-0.060495716
39	0xbcf3314b	-0.02968659
40	0x3a3865b9	0.0007034201
41	0x3d42047b	0.047367554
42	0x3df21d5a	0.118220046
43	0x3ccaa6c4	0.024737723
44	0x3d23af88	0.03996232
45	0x3d1e0971	0.038583223
46	0xbd1ff3dd	-0.039050926
47	0xbde0874f	-0.10963308
48	0x3e072b92	0.13200215
49	0xbdf72b26	-0.12068777
50	0xbac85247	-0.001528331
51	0xbd8670fc	-0.06564519
52	0x3cc5c477	0.024141533
53	0x3dd7e413	0.105415486
54	0x3c52d9fc	0.012869354
55	0x3d787541	0.060658697
56	0xbc428166	-0.011871671
57	0x3cf5d980	0.030010939
58	0x3dcc249c	0.0996792
59	0xbd999967	-0.07499962
60	0xbdb359eb	-0.08757385
61	0xbdbba373	-0.09162035
62	0xbd501afb	-0.05080698
63	0x3dda7eb6	0.106686994
64	0x3c7d216e	0.015449865
65	0xbdb5d9ea	-0.088794544
66	0x3dc76d62	0.0973766
67	0xbd65810f	-0.056031283
68	0xbd0fa54b	-0.035069745
69	0xbd995db5	-0.07488576
70	0x3dd19c7a	0.10234924
71	0xbd837499	-0.064187236
72	0xbdb14f78	-0.086577356
73	0xbe0d0462	-0.13771203
74	0x3d407d9b	0.046994787
75	0x3d4aa5d9	0.04947457
76	0x3d91ecb1	0.071252234
77	0x3d8d2859	0.06892461
78	0xbd161d38	-0.03664896
79	0xbd07176a	-0.032981314
80	0xbd9381f7	-0.07202523
81	0xbdae9f12	-0.08526434
82	0xbd2e6b53	-0.04258282
83	0x3e003e34	0.12523729
84	0xbd5a06cd	-0.053229142
85	0xbc1c66e4	-0.009546015
86	0xbd822db7	-0.06356376
87	0xbcf0d738	-0.0293995
88	0xbca4f85a	-0.020137955
89	0x3d0528c4	0.03250958
90	0x3d39c5f9	0.045354817
91	0x3d928d3b	0.07155844
92	0x3cff681f	0.031177578
93	0xbda94a90	-0.08266175
94	0x3e14542e	0.14485237
95	0xbdc40e30	-0.095730186
96	0x3d64d2a5	0.05586495
97	0x3d071d12	0.032986708
98	0xbd485fd6	-0.04891952
99	0x3e0e1803	0.13876347
100	0xbe1002dc	-0.14063591
101	0x3d6b5b1f	0.057459947
102	0x3d59d87d	0.053184975
103	0x3db83351	0.08994163
104	0x3d86820a	0.06567772
105	0x3d7680e5	0.060181517
106	0xbcac1c78	-0.021009669
107	0xbdbff25b	-0.093723975
108	0xbd380485	-0.044926185
109	0x3d6f0e86	0.05836346
110	0x3e0945c5	0.13405521
111	0x3dbbf9c1	0.09178496
112	0xbdd4cf72	-0.103911296
113	0x3d1d0a90	0.03834015
114	0xbd1bb37d	-0.03801297
115	0x3d9b27cf	0.07575952
116	0x3dad8410	0.084724545
117	0xbe07c85d	-0.13260026
118	0x3df39988	0.11894518
119	0x3d9dde35	0.07708398
120	0xbdc4d92b	-0.09611734
121	0x3dd33bee	0.10314165
122	0x3c29f488	0.010373242
123	0xbbc1b86f	-0.005911879
124	0x3d0d2d00	0.034466743
125	0x3ddb94d8	0.10721749
126	0x3cd7d8b1	0.026348444
127	0x3d84c9f7	0.06483834
128	0x3dcd5856	0.10026614
129	0xbe0f698f	-0.14005111
130	0x3dc6f2ce	0.0971428
131	0x3ddfb5c2	0.109233394
132	0x3d71811d	0.058961023
133	0x3d879611	0.0662042
134	0xbbba179f	-0.0056790854
135	0xbc8f146f	-0.017465798
136	0x3d9cb9e2	0.07652642
137	0x3b9551b1	0.0045568575
138	0x3cb160a1	0.021652522
139	0x3c3bfd23	0.011473927
140	0x3de27dfc	0.11059186
141	0xbd067433	-0.03282566
142	0xbdc4cd56	-0.09609477
143	0x3da61912	0.081102505
144	0xbcf40df7	-0.029791815
145	0xbd5817a7	-0.05275693
146	0xbd1f8b36	-0.03895112
147	0x3cabc6f2	0.020968888
148	0xbd8d04f2	-0.06885709
149	0x3dcfd322	0.10147692
150	0xbda61fc8	-0.081115305
151	0x3df74092	0.12072863
152	0x3da6770f	0.081281774
153	0xbd8647ad	-0.0655664
154	0x3dc8a6cd	0.0979744
155	0x3e0a7593	0.13521414
156	0xbdc40758	-0.09571713
157	0xbd862ecc	-0.065518945
158	0x3e027bf3	0.12742595
159	0xbd2d8d30	-0.042370975
160	0xbc948e87	-0.018134369
161	0xbdcdcb72	-0.1004857
162	0xbd860086	-0.065430686
163	0xbdf6b106	-0.12045483
164	0xbd450d44	-0.048108354
165	0xbc82352d	-0.015894497
166	0xbcdb68fa	-0.026783455
167	0x3d88f64e	0.06687604
168	0x3db835ec	0.0899466
169	0x3db21c4e	0.08696805
170	0x3e34ecb6	0.17668423
171	0x3e13a656	0.14418921
172	0xbc0c3915	-0.008558531
173	0x3d62d7d2	0.055381604
174	0x3d94edc5	0.072719134
175	0x3e0d2ee1	0.13787414
176	0x3e1ca92e	0.15298912
177	0xbc238aea	-0.00998185
178	0xbdb93b73	-0.09044542
179	0x3d4a36dc	0.049368724
180	0x3e10a7e2	0.14126542
181	0xbe105d46	-0.14098081
182	0xbd52e290	-0.051485598
183	0x3cfeccd8	0.031103536
184	0xbcae5357	-0.021279974
185	0xbd8dc8af	-0.06923043
186	0xbd957454	-0.072975785
187	0xbd35d300	-0.04439068
188	0x3d4539ea	0.048150934
189	0xbd55c003	-0.05218507
190	0xbd73b34b	-0.05949716
191	0x3d39d5c3	0.045369875
192	0xbdca0dd9	-0.098659225
193	0xbc799f39	-0.015235716
194	0x3e0c2c22	0.1368871
195	0xbdb08ba4	-0.08620384
196	0xbd6889c4	-0.05677201
197	0xbc92302a	-0.017845232
198	0xbd8028a5	-0.06257752
199	0x3a9700ea	0.0011520658

lstm.weight_ih_l1 f4 [200, 50]
0	0x3c1261f2	0.008934485
1	0x3dc85a84	0.097828895
2	0xbd46d974	-0.048547223
3	0x3d84861e	0.06470893
4	0xbd4e28bf	-0.050331827
5	0x3d5c9a35	0.053858
6	0x3bfa88b8	0.0076456927
7	0x3de68426	0.11255674
8	0xbbb025f0	-0.0053756163
9	0xbc0d657a	-0.008630151
10	0xbbaf4c5e	-0.00534968
11	0xbde3ba73	-0.11119547
12	0xbde4f2b9	-0.11179108
13	0x3d16a214	0.036775663
14	0x3bf90fde	0.0076007685
15	0x3de232c9	0.11044843
16	0xbd67ac66	-0.056560896
17	0x3db9ad8e	0.09066306
18	0xbda4d7ce	-0.08048974
19	0xbddef6a7	-0.10886889
20	0x3dd522d1	0.10407031
21	0x3c5044b4	0.012711693
22	0x3cf4b771	0.029872628
23	0x3d1d0db5	0.03834315
24	0xbdcf02af	-0.10107934
25	0x3decb864	0.11558607
26	0xbc93b796	-0.018031877
27	0xbd8cf18a	-0.068820074
28	0xbd89abd7	-0.06722229
29	0xbdd03bb4	-0.101676375
30	0x3e0c96b5	0.13729365
31	0xbdcbcb00	-0.099508286
32	0x3d15893e	0.036507837
33	0x3dc75894	0.09733692
34	0xbd5fd4fb	-0.054646473
35	0xbd2fe617	-0.04294404
36	0x3d05e2c5	0.032686967
37	0xbdb94819	-0.09046955
38	0x3cf9d752	0.03049818
39	0xbd48c659	-0.049017284
40	0x3d181c30	0.037136257
41	0x3d94621c	0.072452754
42	0x3cb2b367	0.021814061
43	0xbbc15071	-0.005899482
44	0x3d903524	0.07041386
45	0x3d7a9ee2	0.06118668
46	0xbe03a6ab	-0.12856548
47	0xbd025518	-0.031819433
48	0xbdc57008	-0.09640509
49	0xbc9bd07d	-0.019020313
50	0x3da63e22	0.0811732
51	0xbdee24c6	-0.11628108
52	0x3d95bea4	0.073117524
53	0xbdbd083a	-0.09230085
54	0xbdf5cf50	-0.12002432
55	0xbda689d3	-0.08131757
56	0xbdcaaad9	-0.09895868
57	0x3d610091	0.05493218
58	0xbda7244f	-0.08161222
59	0x3c432f9c	0.011913206
60	0xbdb9be83	-0.0906954
61	0xbe066b80	-0.13126945
62	0x3dda4674	0.10657969
63	0x3dda8662	0.10670163
64	0xbbee14f6	-0.0072656823
65	0xbdcaa2b8	-0.098943174
66	0x3d89311d	0.06698821
67	0xbd1b441f	-0.037906762
68	0x3e1152d8	0.14191759
69	0xbcb2a634	-0.021807767
70	0x3e35ed13	0.17766218
71	0x3d1eb589	0.038747344
72	0xbcdf6147	-0.027268065
73	0x3da450ef	0.08023249
74	0xbd3e2a2d	-0.04642694
75	0x3d63621b	0.055513483
76	0xbd884063	-0.06652906
77	0xbb8c7d77	-0.0042874175
78	0x3e14a969	0.1451775
79	0xbd2563c2	-0.04037834
80	0xbbeb65b0	-0.007183753
81	0x3b4b3d7c	0.003101199
82	0xbd670696	-0.056402765
83	0x3db69d73	0.0891675
84	0xbd0d4195	-0.034486372
85	0xbbda67c2	-0.006665201
86	0xbe005283	-0.12531476
87	0xbdd9ae77	-0.1062898
88	0xbc9f3221	-0.019433083
89	0x3e164428	0.14674437
90	0x3d3ac2dc	0.04559599
91	0x3dc9983e	0.09843491
92	0x38a77d69	7.98654e-05
93	0xbad8759e	-0.0016514545
94	0xbdc4e018	-0.09613055
95	0xbdfb430a	-0.12268646
96	0xbc97d77e	-0.018535372
97	0x3dc3390f	0.095323674
98	0xbc6b1161	-0.014347405
99	0xbd2a18a6	-0.041527413
100	0xbce1560c	-0.02750685
101	0x3d773beb	0.060359877
102	0xbdbf507d	-0.09341524
103	0x3d9cab95	0.07649914
104	0xbc79cab8	-0.015246086
105	0x3dde1463	0.10843732
106	0xbe21513e	-0.15753648
107	0xbd41feae	-0.047362022
108	0xbd26d842	-0.040733583
109	0xbe385fca	-0.1800529
110	0xbdf8313a	-0.12118764
111	0xbe16b470	-0.14717269
112	0xbdcc9433	-0.09989204
113	0x3d771d06	0.060330413
114	0xbe1049ce	-0.14090654
115	0xbc0003ec	-0.007813435
116	0xbd8864f6	-0.06659882
117	0x3dcca955	0.09993235
118	0xbdfa5238	-0.12222713
119	0x3d71aaa5	0.05900063
120	0x3e8ca7b5	0.274717
121	0xbc498570	-0.01229988
122	0x3e311557	0.17293297
123	0x3d1a872e	0.037726574
124	0x3e261b9a	0.16221467
125	0x3b8a9596	0.004229258
126	0xbda8ab7a	-0.082358316
127	0x3e4b18fb	0.19833748
128	0x3d583131	0.052781288
129	0x3d455f07	0.04818633
130	0xbc13e44f	-0.009026601
131	0x3d9718fc	0.07377812
132	0x3da140bf	0.078736775
133	0x3d8df5c2	0.0693164
134	0x3e1a7d70	0.15086913
135	0x3d3656f9	0.044516537
136	0x3d0cecbc	0.034405455
137	0x3da4799a	0.08031006
138	0xbdf9c4ef	-0.12195765
139	0xbd659063	-0.0560459
140	0xbd762f10	-0.060103476
141	0xbdf279ae	-0.11839615
142	0xbcd6937a	-0.02619337
143	0xbc28bfbf	-0.010299622
144	0x3ab8330a	0.0014053297
145	0x3d6a34d6	0.057179295
146	0xbdc15c14	-0.09441391
147	0x3d6a92ab	0.05726878
148	0xbe20a3ce	-0.15687487
149	0xbd5b00ad	-0.05346744
150	0xbc8a5830	-0.016887754
151	0x3d9b3b89	0.07579715
152	0x3dbbab07	0.0916348
153	0x3dc7d69c	0.0975773
154	0x3c4bf549	0.012448617
155	0x3d1bb132	0.038010783
156	0xbdd81369	-0.10550577
157	0xbde8b1ac	-0.11362013
158	0xbd56b687	-0.052420165
159	0x3c12ff74	0.008972038
160	0x3a412acf	0.00073687447
161	0xbdf9f388	-0.12204653
162	0x3be972ce	0.0071242815
163	0xbdf1e94a	-0.118120745
164	0xbd471e0d	-0.048612643
165	0x3d211d61	0.03933466
166	0x3ddedf65	0.10882453
167	0x3c88bebf	0.016692517
168	0x3dc3f240	0.0956769
169	0x3cfdca27	0.030980183
170	0xbd32b690	-0.043631136
171	0xbdb975ae	-0.09055649
172	0x3dd4d04b	0.10391291
173	0xbd17c442	-0.0370524
174	0xbca63307	-0.020288004
175	0xbbe40c9c	-0.006959511
176	0xbcbd5c1f	-0.023115216
177	0x3df086ee	0.11744486
178	0xbbf2fc07	-0.007415298
179	0xbdc8e5c8	-0.09809452
180	0x3d2eff28	0.042723805
181	0x3ddabaaf	0.10680138
182	0x3c6226b9	0.0138031775
183	0xbda7c9d3	-0.08192792
184	0x3dd4ebf5	0.10396568
185	0xbd03e9f8	-0.032205552
186	0xbdcfc326	-0.101446435
187	0xbb7fe8df	-0.0039048714
188	0x3dd97024	0.10617092
189	0xbd244674	-0.04010625
190	0x3d8fbf5d	0.070189215
191	0x3cd70a45	0.026250014
192	0x3d644bc2	0.05573631
193	0xbdbdf31c	-0.09274885
194	0xbd87082e	-0.06593357
195	0xbd9904b7	-0.074716024
196	0x3d6e0b70	0.058116376
197	0xbd929c22	-0.07158686
198	0xbe0eb852	-0.139375
199	0x3d2611e2	0.040544398
200	0x3e2be149	0.16785158
201	0xbd789a95	-0.060694296
202	0x3d38ef78	0.04515025
203	0x3df91228	0.12161666
204	0xbdae42f1	-0.08508862
205	0x3d8524ad	0.06501136
206	0xbe17134a	-0.14753452
207	0x3d767e8f	0.06017929
208	0xbe0167e1	-0.12637283
209	0x3d4b50a3	0.049637448
210	0x3dc18be2	0.09450509
211	0x3d8dfc7d	0.06932924
212	0xbdf93dcf	-0.12169992
213	0x3db8d1fe	0.09024428
214	0x3ce87873	0.028377747
215	0x3d35d511	0.04439265
216	0x3daede2b	0.08538469
217	0x3e0c7b75	0.1371897
218	0xbd3cd0a1	-0.0460974
219	0xbd112e62	-0.035444625
220	0x3d8f4d78	0.06997198
221	0x3c5d5574	0.013509143
222	0xbca2b01d	-0.019859368
223	0x3d83b33c	0.064306706
224	0x3dd4d499	0.10392112
225	0x3e568fa0	0.20953226
226	0xbd068dc5	-0.032850046
227	0x3e1d839e	0.15382239
228	0x3d12593f	0.035729643
229	0x3d7a54d1	0.061116043
230	0xbcc3c5e8	-0.02389808
231	0xbd743bdc	-0.0596274
232	0xbd68ee7b	-0.056868058
233	0xbde98629	-0.11402542
234	0xbddfdd6f	-0.10930907
235	0x3e1c0ddf	0.15239666
236	0x3b0d1a8f	0.0021530723
237	0xbdfedcd2	-0.12444462
238	0x3d25f41b	0.040516
239	0xbc682827	-0.014169729
240	0xbdfe9919	-0.12431545
241	0xbcc5429b	-0.024079612
242	0xbd86526d	-0.0655869
243	0xbd073be1	-0.03301609
244	0xbcefaf26	-0.029258322
245	0xbd7764f5	-0.060399015
246	0x3dd1522c	0.10220751
247	0x3d7cb526	0.061696194
248	0x3ca6e2d5	0.020371834
249	0x3d5e8cc6	0.05433347
250	0x3e0ff08c	0.14056605
251	0x3d089ca1	0.033352498
252	0xbdd366ad	-0.10322318
253	0x3d48265d	0.04886471
254	0x3d3161c1	0.043306116
255	0x3c8f2f80	0.017478704

lstm.weight_hh_l1 f4 [200, 50]
0	0xbde65852	-0.112473145
1	0x3b0e5440	0.0021717697
2	0x3e03771e	0.12838408
3	0xbd5e8585	-0.054326553
4	0xbcc571b4	-0.02410207
5	0xbda5ee32	-0.08102073
6	0x3b993081	0.0046749716
7	0x3cbe9e10	0.02326873
8	0x3cd74fb8	0.02628313
9	0x3cd3ccc7	0.025854481
10	0x3d4c0605	0.04981043
11	0x3ca022bd	0.019547815
12	0xbe025a20	-0.12729692
13	0x3dc485e5	0.09595851
14	0xbd11fc65	-0.035641093
15	0xbd1ce5f5	-0.03830524
16	0x3cf5b060	0.029991329
17	0x3df9f2d9	0.12204523
18	0xbdd85778	-0.10563558
19	0xbe1afc16	-0.15135226
20	0x3df9340b	0.121681295
21	0x3cca0eba	0.024665225
22	0xbe063a47	-0.13108169
23	0xbbd57751	-0.0065144678
24	0x3ca404ff	0.020021914
25	0xbe0f066f	-0.13967298
26	0x3de7323d	0.11288879
27	0xbd945073	-0.07241907
28	0xbd556837	-0.05210134
29	0x3dfa2c8b	0.12215527
30	0x3dfb2d44	0.12264493
31	0x3d057af6	0.032587968
32	0x3ce20f5a	0.02759521
33	0xbcf14621	-0.029452385
34	0xbdb7ffb9	-0.08984322
35	0x3dd655d9	0.10465593
36	0xbdb0742e	-0.086159095
37	0x3d95a02a	0.073059395
38	0xbdd30221	-0.103031404
39	0x3d5846c8	0.052801877
40	0x3d81a837	0.063309126
41	0x3a8cb78f	0.0010735857
42	0xbdab7638	-0.08372158
43	0xbd9a7bea	-0.07543166
44	0x3dbda7cd	0.09260521
45	0x3e044acb	0.12919156
46	0xbdffb5dc	-0.12485859
47	0x3d4e8fdc	0.050430164
48	0x3df7f79d	0.12107775
49	0xbde02b35	-0.10945741
50	0xbd9bedfe	-0.07613753
51	0xbd3bea78	-0.045877904
52	0x3d9632d6	0.07333915
53	0x3df3dc95	0.11907307
54	0x3da1e4a3	0.07904937
55	0x3dba96d0	0.091107965
56	0x3da88743	0.08228924
57	0xbc7cab00	-0.015421629
58	0x3e0ad2c2	0.1355696
59	0xbceac0c3	-0.02865637
60	0x3d77bbbd	0.060481776
61	0x3de37a27	0.11107283
62	0x3db800d8	0.08984536
63	0xbd3c56a4	-0.045981064
64	0x3bffe7e0	0.007809624
65	0xbbee3bfc	-0.0072703343
66	0xbdf4b746	-0.11949019
67	0x3dcdea9e	0.10054515
68	0xbc9cfdae	-0.019163933
69	0xbd75d42d	-0.0600168
70	0xbde621f5	-0.112369455
71	0xbdc553dd	-0.09635136
72	0xbcfa8b09	-0.030583875
73	0x3d920b47	0.07131057
74	0x3db3cb58	0.08779019
75	0xbdd67388	-0.104712546
76	0xbe1923bc	-0.14955038
77	0xbd3d9301	-0.046282772
78	0x3cb15329	0.0216461
79	0xbda64694	-0.081189305
80	0x3d94577b	0.07243248
81	0x3d891acc	0.06694564
82	0x3dcdf1c9	0.100558825
83	0xbd80d651	-0.062908776
84	0x3d862bb7	0.06551307
85	0xbd8d7f37	-0.0690903
86	0xbda4a38e	-0.08039008
87	0x3cab538f	0.020913867
88	0xbcf41cec	-0.029798947
89	0x3de6b5a4	0.11265114
90	0xbde50b14	-0.111837536
91	0xba11d044	-0.0005562345
92	0x3dd76ea4	0.1051915
93	0x3d579e18	0.052641004
94	0x3d98aab4	0.07454434
95	0xbda47145	-0.08029417
96	0xbe093594	-0.13399345
97	0x3d757df2	0.059934564
98	0xbd9afcf1	-0.07567776
99	0x3dde81df	0.10864615
100	0xbda2eb88	-0.0795508
101	0xbe0a2561	-0.13490821
102	0x3dc58551	0.09644569
103	0x3d9d8322	0.07691027
104	0xbe1e9319	-0.15485801
105	0xbd359884	-0.044334903
106	0x3d92409e	0.07141231
107	0x3b8ce70c	0.004300004
108	0xbdec55fc	-0.11539838
109	0xbddb2e66	-0.10702209
110	0xbc77737b	-0.015103216
111	0xbdd04432	-0.10169257
112	0x3e1be4a3	0.15223937
113	0xbe1e28ec	-0.15445298
114	0x3d5486b7	0.051886287
115	0x3dd69c28	0.10479003
116	0x3dd34416	0.10315721
117	0x3d732e44	0.059370294
118	0x3e033e64	0.12816769
119	0xbda69ea9	-0.08135731
120	0x3d93cb97	0.07216566
121	0xbda13a5e	-0.07872461
122	0xbd52422d	-0.05133264
123	0xbd47a3d3	-0.04874022
124	0xbe507cba	-0.2036008
125	0x3c804784	0.015659101
126	0x3dfb0a83	0.12257864
127	0xbdfc6d31	-0.12325514
128	0xbd0dab2a	-0.034587063
129	0x3db1678b	0.086623274
130	0xbd45306d	-0.048141886
131	0x3e1b632a	0.15174547
132	0xbd9cd9e9	-0.076587506
133	0xbd35b134	-0.044358447
134	0x3dd963fb	0.10614773
135	0x3d7b6406	0.061374687
136	0x3d1bc92e	0.038033657
137	0xbe07cc2f	-0.13261484
138	0xbd8e908f	-0.06961166
139	0xbde266bf	-0.110547535
140	0x3e1be92f	0.15225671
141	0x3d4bd7d6	0.049766384
142	0x3b10179e	0.0021986733
143	0x3d019b72	0.031642385
144	0x3dd2aaa2	0.10286452
145	0xbdc38f4e	-0.095488176
146	0xbd6d6640	-0.05795884
147	0xbc7311ba	-0.014835769
148	0x3d8f2809	0.06990058
149	0x3e2aa5f5	0.1666487
150	0x3d7f640b	0.062351268
151	0xbd85577a	-0.065108255
152	0xbd350313	-0.044192385
153	0x3d8653a6	0.065589234
154	0x3d9ac7a2	0.07557608
155	0xbd8b017b	-0.06787392
156	0x3d86ce44	0.06582311
157	0x3e1c2885	0.15249832
158	0x3c18fa49	0.009337016
159	0xbc0309c3	-0.007997933
160	0xbd9327ab	-0.071853004
161	0x3d25b248	0.040453225
162	0x3e07926e	0.13239452
163	0x3e07d087	0.1326314
164	0x3b6148e9	0.0034375733
165	0xbe11af51	-0.14227034
166	0xbd3f96e0	-0.046774745
167	0xbcf20382	-0.029542688
168	0x3d16e086	0.036835216
169	0x3bebde95	0.0071981647
170	0x3df4274b	0.11921557
171	0xbdf4ce7b	-0.119534455
172	0xbded01a9	-0.11572582
173	0x3e11ad3d	0.14226241
174	0xbcb3bb32	-0.021939848
175	0xbe1564b5	-0.14589198
176	0x3b513b5a	0.0031926245
177	0xbdcdf9b8	-0.10057396
178	0xbd9869b7	-0.074420385
179	0x3bcd9d1a	0.0062748315
180	0x3d3db973	0.046319436
181	0x3dfe0367	0.12402993
182	0x3defc7ed	0.11708055
183	0xbc86c617	-0.016451878
184	0xbd29ec82	-0.041485317
185	0x3da885dc	0.08228657
186	0xbd8ccde3	-0.06875207
187	0x3c4736bd	0.012159047
188	0xbcabcae0	-0.020970762
189	0x3dfb43da	0.12268801
190	0xbdc113c0	-0.09427595
191	0xbe202df8	-0.15642536
192	0xbcafeaf0	-0.021474332
193	0xbd43c163	-0.04779185
194	0x3daa164c	0.08305034
195	0xbd4e67a5	-0.050391812
196	0x3c3b43bf	0.011429726
197	0xbdb42e2a	-0.087978676
198	0x3c39c976	0.011339536
199	0xbd9ea1b5	-0.07745687
200	0xbc241966	-0.010015821
201	0xbba8181c	-0.005129827
202	0x3dccadd8	0.099940956
203	0xbde12d1f	-0.10994934
204	0x3c4ba592	0.012429612
205	0xbdd0d47e	-0.1019678
206	0x3de6b18f	0.11264335
207	0xbda3a61c	-0.07990667
208	0xbcd1c5da	-0.025607038
209	0xbc331cae	-0.010932131
210	0x3dabe546	0.0839334
211	0x3d9a2b96	0.075278446
212	0xbddf0de3	-0.108913206
213	0xbcc6afbc	-0.024253719
214	0xbe0e1906	-0.13876733
215	0xbcd64b80	-0.026159048
216	0xbded8f6c	-0.11599621
217	0xbe06b02e	-0.13153145
218	0x3d50618f	0.05087429
219	0xbdead713	-0.114668034
220	0xbd85699a	-0.065142825
221	0xbdb8061d	-0.08985541
222	0xbe090874	-0.13382131
223	0xbddeca15	-0.10878388
224	0xbd27c5e4	-0.040960208
225	0xbdd614d3	-0.10453191
226	0xbde7256a	-0.11286433
227	0x3d1dc30a	0.038516082
228	0xbd990a28	-0.0747264
229	0xbcad8c36	-0.021185022
230	0x3d8341bf	0.064090244
231	0xbcc2bfcd	-0.023773098
232	0xbdfd0273	-0.12353983
233	0x3d58f8e3	0.052971732
234	0x3d899437	0.06717723
235	0x3d4261a6	0.047456406
236	0x3dc79980	0.09746075
237	0xbd2498f1	-0.04018492
238	0x3dbe36a9	0.09287769
239	0xbe02e9b4	-0.12784463
240	0x3ddf1467	0.10892563
241	0x38d5f600	0.000102024525
242	0x3dfa34a9	0.122170754
243	0xbdd9285b	-0.106034
244	0xbc9c29c8	-0.019062892
245	0xbde6fece	-0.11279069
246	0xbddb1296	-0.10696904
247	0xbd884b3d	-0.066549756
248	0xbdb74839	-0.08949322
249	0x3d30d618	0.043172926
250	0xbd8a2a1d	-0.06746314
251	0xbe14e5d6	-0.145408
252	0x3d08621a	0.033296682
253	0xbd0317e7	-0.032005217
254	0x3e024d28	0.12724745
255	0xbda01141	-0.07815791

lstm.bias_ih_l1 f4 [200]
0	0x3cfb8ba3	0.030706232
1	0xbcb7d685	-0.022441158
2	0x3b5c9f9a	0.0033664466
3	0x3def874c	0.11695728
4	0x3dd98411	0.10620893
5	0x3ce9d313	0.02854303
6	0x3d847235	0.06467096
7	0xbd9fdb69	-0.07805521
8	0xbd7a8de6	-0.06117048
9	0x3ce3ccae	0.02780756
10	0xbd8e3551	-0.06943763
11	0x3dea4472	0.11438836
12	0x3d0656b1	0.03279752
13	0x3d220670	0.03955692
14	0x3e21608e	0.15759489
15	0x3e12bbba	0.14329425
16	0xbc703f7a	-0.0146635715
17	0x3e1636f1	0.14669396
18	0xbd3dbf4d	-0.046325017
19	0xbd9b6ceb	-0.07589134
20	0x3cc1843b	0.023622623
21	0xbbd1f88e	-0.006407804
22	0x3ddee6ec	0.108838886
23	0xbd145e51	-0.03622276
24	0xbd4ff0b4	-0.05076666
25	0x3cbdd953	0.023174917
26	0x3e1daa92	0.15397099
27	0x3dfdcc15	0.12392441
28	0xbd4b2d46	-0.049603723
29	0x3e0f3d1d	0.13988157
30	0x3df9752f	0.12180554
31	0xbd38e4c0	-0.045140028
32	0xbd818825	-0.06324796
33	0x39bc893c	0.00035960402
34	0x3d48eaea	0.049052157
35	0xbc26d652	-0.010182934
36	0x3d56c2e8	0.05243197
37	0xbd28dab0	-0.04122418
38	0xbd507361	-0.050891284
39	0x3d746679	0.059668038
40	0x3dee16de	0.11625455
41	0xbde0782f	-0.10960423
42	0x3e14c79f	0.14529274
43	0xbd1a4af0	-0.037669122
44	0xbcd92cdd	-0.02651065
45	0x3d909f3a	0.0706162
46	0xbd1962f0	-0.03744787
47	0x3de3ec98	0.11129111
48	0x3b5392e5	0.00322836
49	0xbc7daa8e	-0.015482558
50	0x3d2495ac	0.0401818
51	0x3d037ceb	0.032101553
52	0xbd5e008d	-0.054199744
53	0xbdf517c9	-0.11967427
54	0xbaf8a0c6	-0.0018968813
55	0x3ddf9ffb	0.10919186
56	0xbc990941	-0.01868117
57	0x3d98b22c	0.074558586
58	0xbd28e221	-0.04123128
59	0x3dfe74fe	0.12424658
60	0xbda2a8ff	-0.0794239
61	0x3d438adf	0.04773986
62	0x3e11e04a	0.14245716
63	0x3b8d36c7	0.0043095085
64	0xbca93f3d	-0.020660037
65	0x3e0fb471	0.14033677
66	0x3d3a90bf	0.045548197
67	0xbc1f04a1	-0.009705693
68	0x3defd9c6	0.11711459
69	0x3d8cd05c	0.06875679
70	0x3c57ce58	0.013171755
71	0x3dc71914	0.0972158
72	0x3c0cf4fa	0.008603329
73	0xbd8f5e8f	-0.070004575
74	0x3d9a6158	0.07538098
75	0x3e072e5a	0.13201275
76	0xbda10ac7	-0.07863384
77	0xbe0aa595	-0.13539727
78	0x3df8abdc	0.121421546
79	0xbdb013e7	-0.08597546
80	0x3dac8de2	0.084254995
81	0x3d9ce64a	0.07661112
82	0x3cbaddb4	0.022810794
83	0xbdaacb27	-0.083395295
84	0xbc68f012	-0.0142173935
85	0xbc91174e	-0.017711308
86	0xbd6dd3ea	-0.058063425
87	0x3d19feed	0.03759663
88	0xbdb99d46	-0.09063201
89	0xbcdd8d77	-0.027044995
90	0xbda7c8da	-0.08192606
91	0x3d615417	0.055011835
92	0xbc8292e3	-0.015939182
93	0xbd8d2a19	-0.06892795
94	0xbcc13340	-0.023584008
95	0x3d50f033	0.05101032
96	0xbdb5f7c2	-0.08885147
97	0x3cb3eedb	0.021964481
98	0x3e08ef42	0.1337252
99	0xbc396ae9	-0.011316993
100	0x3d350d6d	0.044202257
101	0x3db40c3a	0.087913945
102	0x3dd92979	0.106036134
103	0xbd280fc0	-0.041030645
104	0x3dad7dad	0.084712364
105	0xbe06813c	-0.13135237
106	0x3dcb535d	0.0992801
107	0x3dcf6f10	0.10128605
108	0xbc420114	-0.011841077
109	0xbddd5462	-0.1080711
110	0xbd3fe96e	-0.046853475
111	0x3da0295b	0.07820388
112	0x3c877302	0.016534332
113	0x3cf2790f	0.02959874
114	0x3dcdeeab	0.10055288
115	0x3dd07149	0.101778574
116	0x3da724e1	0.08161331
117	0x3db71b22	0.08940722
118	0xbcac93f0	-0.021066636
119	0x3de9473e	0.113905415
120	0x3ca3aa21	0.019978585
121	0xbd09417f	-0.033509728
122	0x3c1c63e1	0.009545297
123	0x3d8e90c2	0.06961204
124	0xbda09615	-0.07841126
125	0xbda07a95	-0.07835881
126	0xbc212495	-0.009835382
127	0x3d955751	0.07292045
128	0xbe1913cc	-0.14948958
129	0x3d1d7dfb	0.038450222
130	0xbda48985	-0.08034042
131	0x3d266449	0.040622983
132	0x3d6aaca8	0.057293564
133	0xbdc2ac57	-0.095055275
134	0xbe1b199c	-0.15146488
135	0xbd93ed37	-0.072229795
136	0x3e0e000d	0.13867207
137	0xbbcf6728	-0.006329436
138	0x3d91ffb4	0.071288496
139	0x3dce1218	0.10062045
140	0x3d7b18fa	0.061303116
141	0x3dd1f01c	0.10250875
142	0x3d939b00	0.07207298
143	0xbd58fec9	-0.052977357
144	0x3c8de1d8	0.017319605
145	0xbe0e9a4b	-0.13926046
146	0x3c3eedbe	0.011653362
147	0x3e1f2140	0.15540028
148	0xbd595a42	-0.053064592
149	0xbd9d1319	-0.07669658
150	0x3d5485fd	0.051885594
151	0x3cca5a06	0.02470113
152	0xbd8e8cd9	-0.06960458
153	0x3de9aa44	0.11409429
154	0xbd9fb9e1	-0.077991255
155	0x3d27d3c8	0.040973455
156	0x3dbd6d53	0.092493676
157	0x3d80d713	0.06291022
158	0xbcc90687	-0.024539245
159	0x3d5be605	0.05368616
160	0xbda359ed	-0.07976136
161	0xbb06a327	-0.0020544024
162	0x3c586158	0.013206802
163	0x3da873b0	0.08225191
164	0x3cd04d2e	0.025427427
165	0xbdf8db57	-0.12151211
166	0xbd524ad7	-0.051340904
167	0xbd5f64bf	-0.05453944
168	0xbdf273bb	-0.1183848
169	0x3d540938	0.051766604
170	0xbd784049	-0.060608182
171	0xbdcb7d70	-0.09936035
172	0x3d227228	0.03965965
173	0xbb01affd	-0.0019788735
174	0xbc6483b4	-0.013947416
175	0x3df09a9f	0.11748242
176	0x3d827ee5	0.063718595
177	0xbb221de1	-0.0024737047
178	0xbdfec53d	-0.12439964
179	0x3db79c42	0.08965351
180	0x3dd5ac71	0.10433281
181	0xbd9a0855	-0.075211205
182	0xbc87ecd5	-0.016592423
183	0xbd98e13e	-0.074648365
184	0x3c591c50	0.013251379
185	0xbdc5f1d5	-0.096652664
186	0xbdc507a5	-0.09620599
187	0x3e45dac0	0.19321728
188	0xbd39ea07	-0.0453892
189	0x3d7e0f9b	0.0620266
190	0x3db76270	0.08954322
191	0x3d5a6a65	0.053324122
192	0xbcc2363a	-0.023707498
193	0x3dae5065	0.08511428
194	0xbca016ea	-0.019542176
195	0xbe012999	-0.12613524
196	0x3d93ba8f	0.072133176
197	0x3e108eb2	0.14116934
198	0x3df0a30a	0.11749847
199	0x3cd25634	0.02567587

lstm.bias_hh_l1 f4 [200]
0	0xbbb11f8b	-0.0054053715
1	0x3e177391	0.14790179
2	0x3cdc0329	0.026856976
3	0x3d9d1e76	0.076718256
4	0xbcdc6315	-0.026902715
5	0x3db1aab2	0.08675136
6	0xbc812760	-0.015765846
7	0xbd42481e	-0.047432058
8	0x3c639c2a	0.013892213
9	0xbcd62daa	-0.026144821
10	0x3cfa4fc8	0.03055562
11	0x3cb82c91	0.022482188
12	0xbdb85128	-0.08999854
13	0xbcf1f87c	-0.029537432
14	0xbd790be7	-0.060802367
15	0xbde3c0b6	-0.11120741
16	0x3cb8bf52	0.022552166
17	0x3d546df9	0.05186269
18	0x3d11d821	0.035606507
19	0x3db48a79	0.08815474
20	0x3de1c9af	0.11024796
21	0x3cc081e7	0.023499442
22	0xbd3a9878	-0.04555556
23	0xbdefa908	-0.11702162
24	0xbc688931	-0.014192865
25	0xbd5a9232	-0.05336208
26	0xbd62c99b	-0.055368047
27	0x3cf7bfcc	0.030242823
28	0xbd8236ce	-0.063581094
29	0x3df89258	0.12137288
30	0xbcad8d43	-0.021185523
31	0xbd890fd3	-0.06692471
32	0xbd0ac48a	-0.03387884
33	0x3dc0b19e	0.09408878
34	0x3d1bb2a4	0.03801216
35	0x3e1562ec	0.14588517
36	0x3d49d2bc	0.049273238
37	0x3bc6ec23	0.00607063
38	0x3ca16563	0.019701665
39	0xbdbfd10c	-0.093660444
40	0x3d248e4e	0.040174775
41	0xbdbc3058	-0.09188908
42	0xbdd1c22e	-0.10242115
43	0x3cb322a9	0.021867113
44	0xbcc9e26d	-0.024644101
45	0xbc25291c	-0.010080602
46	0xbd9c4b4b	-0.076315485
47	0xbc330276	-0.01092588
48	0x3bd807d1	0.0065927287
49	0xbdb5a13e	-0.08868645
50	0x3dcd0f17	0.10012644
51	0xbe056829	-0.13028015
52	0x3cff083d	0.031131858
53	0xbc5a9d6a	-0.0133431945
54	0x3dfbe7bb	0.123000585
55	0xbdc79afd	-0.097463585
56	0xbce28137	-0.027649505
57	0xbdff3bef	-0.12462603
58	0x3d96ea59	0.07368917
59	0xbdb9a8a1	-0.090653665
60	0x3cbedb4e	0.023297932
61	0xbdbd06e1	-0.09229828
62	0x3d9617a8	0.07328731
63	0xbde6df4e	-0.11273061
64	0xbb84dcac	-0.0040546264
65	0x3c7f8390	0.015595332
66	0x3dee3a74	0.11632243
67	0x3de6eef5	0.11276046
68	0xbb997695	-0.0046833255
69	0xbd7fe356	-0.062472664
70	0x3e1b5aac	0.15171307
71	0xbc0805ea	-0.008302191
72	0xbc2a2256	-0.010384163
73	0xbcdca898	-0.02693586
74	0x3c93784a	0.018001694
75	0xbdfd06f9	-0.123548456
76	0x3cefcbe1	0.029272022
77	0xbc2c6b50	-0.010523632
78	0xbd95e1f6	-0.07318489
79	0xbd779328	-0.060443074
80	0xbdad7a84	-0.084706336
81	0x3da4034f	0.080084436
82	0xbe054610	-0.13015008
83	0x3e17ac47	0.14811812
84	0x3dc6713f	0.09689569
85	0xbdceb6dc	-0.100934714
86	0x3cd0e394	0.025499143
87	0xbd7e2f53	-0.06205685
88	0x3d2fb05f	0.04289281
89	0xbd529c41	-0.051418547
90	0x3d9466be	0.07246159
91	0x3d1d22e6	0.03836336
92	0xbdab05c4	-0.08350709
93	0xbd630e7a	-0.055433728
94	0x3c5f26b6	0.013620069
95	0xbdd3b63b	-0.10337492
96	0x3d4678b4	0.048454955
97	0xbd30583d	-0.0430529
98	0x3ceb0f78	0.0286939
99	0xbe04a1cd	-0.12952347
100	0xbd2d57f7	-0.042320218
101	0xbd4889f9	-0.048959706
102	0xbdc383e3	-0.0954664
103	0xbe10ec87	-0.14152728
104	0xbe0fff59	-0.14062251
105	0xbd8dbb98	-0.06920546
106	0x3dbf5fdd	0.09344456
107	0xbdaa92c2	-0.08328773
108	0xbdb610eb	-0.088899456
109	0x3d9d61b8	0.07684654
110	0xbbbeb243	-0.0058195903
111	0x3dbe6203	0.09296038
112	0x3d496b7c	0.04917477
113	0xbe1577a7	-0.14596425
114	0xbc232d00	-0.009959459
115	0xbd343c9d	-0.044003118
116	0xbd5eb794	-0.054374292
117	0xbd38d65f	-0.045126315
118	0x3da31e59	0.07964773
119	0xbd4ec4b4	-0.05048056
120	0xbcb49a84	-0.022046335
121	0xbd72602f	-0.05917376
122	0xbda07ac0	-0.07835913
123	0x3dcdbc54	0.10045686
124	0x3deb66b5	0.11494199
125	0xbe10a094	-0.14123756
126	0xbd8a4bcf	-0.067527406
127	0x3d475d99	0.048673246
128	0x3d49acb0	0.049236953
129	0xbd849039	-0.06472821
130	0xbce7323c	-0.028222196
131	0x3b81903a	0.0039539607
132	0xbd9a0224	-0.075199395
133	0x3da68861	0.08131481
134	0xbd2ca750	-0.04215175
135	0xbd485690	-0.048910677
136	0x3e107215	0.14106019
137	0x3d040ea1	0.032240514
138	0xbd84221f	-0.064518206
139	0x3d9fcfbe	0.078032956
140	0x3e042c8f	0.12907623
141	0xbdb5e1e4	-0.08880976
142	0x3bebed16	0.0071998937
143	0xbd6f3cf5	-0.058407743
144	0x3e0ad946	0.13559446
145	0xbcc7f176	-0.02440713
146	0xbdbdfb5a	-0.09276457
147	0xbd4c5706	-0.04988768
148	0x3db8c074	0.090210825
149	0x3d4a8170	0.049439847
150	0x3daced28	0.084436715
151	0xbcd8455b	-0.026400259
152	0xbd327192	-0.04356534
153	0xbdfcd4c1	-0.12345267
154	0xbd0dda94	-0.03463228
155	0x3d4bd93e	0.049767725
156	0xbe17bddc	-0.1481852
157	0x3d805d5b	0.06267806
158	0xbc5c0478	-0.0134288
159	0x3e2431cc	0.16034621
160	0x3daa84dd	0.08326123
161	0xbcf533d0	-0.029931933
162	0xbdefb4eb	-0.11704429
163	0x3b9740e6	0.004615891
164	0x3e17f7e9	0.14840664
165	0x3dcd97c0	0.1003871
166	0x3d8a1e7f	0.06744098
167	0x3dc6bc85	0.09703926
168	0x3ded8779	0.11598105
169	0x3d805544	0.06266263
170	0xbdc5837c	-0.09644219
171	0xbc4b7539	-0.012418085
172	0xbc006002	-0.00783539
173	0xbcd3d800	-0.025859833
174	0xbda749c0	-0.081683636
175	0x3d8755b3	0.06608143
176	0xbcfe9076	-0.031074744
177	0x3c284b1b	0.010271813
178	0x3dc50198	0.096194446
179	0x3d9a717c	0.07541177
180	0x3d957ced	0.07299218
181	0xbd5f8f63	-0.054580104
182	0xbdb90e24	-0.090359
183	0x3cc01c83	0.023451095
184	0x3cb49590	0.022043973
185	0x3e067832	0.13131788
186	0xbc43af13	-0.011943596
187	0xbd99edec	-0.07516083
188	0xbd36e2e5	-0.044649977
189	0xbd8694b8	-0.065713346
190	0x3bf5e2cb	0.0075038425
191	0xbde308d2	-0.11085667
192	0xbbe02ba2	-0.006841139
193	0x3db6558f	0.08903038
194	0x3d810e67	0.06301575
195	0x3d24e7ff	0.04026031
196	0x3deed4cf	0.11661684
197	0x3d3af9b9	0.04564831
198	0xbd3fd761	-0.04683626
199	0x3d930b3c	0.07179877

fc.weight f4 [1, 50]
0	0x3d7ea595	0.06216963
1	0xbd9adfa0	-0.07562184
2	0x3da103c7	0.078620486
3	0xbdeb1b1e	-0.114797816
4	0xbdc86d9d	-0.09786532
5	0xbd18d977	-0.037316766
6	0xb9bd042a	-0.00036051992
7	0xbd3b19ca	-0.04567889
8	0x3d96aad5	0.073568024
9	0xbd191119	-0.03736982
10	0x3dd7c01f	0.10534691
11	0xbcacc92c	-0.02109202
12	0x3e07c445	0.13258465
13	0xbdb5299d	-0.08845828
14	0xbd87f594	-0.06638637
15	0x3d80dce9	0.06292135
16	0xbc215683	-0.009847286
17	0xbd8bc66f	-0.068249576
18	0x3e01a14b	0.12659185
19	0xbe041f1d	-0.12902494
20	0xbe1bd092	-0.15216282
21	0x3c8a6ee9	0.01689859
22	0xbe058825	-0.13040216
23	0xbdc4640c	-0.09589395
24	0xbdc0905f	-0.094025366
25	0xbd683827	-0.056694176
26	0xbd8ad229	-0.06778366
27	0x3d48b440	0.049000025
28	0xbe1db951	-0.15402724
29	0x3d6277f4	0.055290177
30	0xbd490a7a	-0.049082257
31	0x3d5427ad	0.05179565
32	0xbd46b7fb	-0.0485153
33	0x3de7aa9d	0.11311839
34	0xbdb2a125	-0.08722142
35	0xbdada748	-0.08479172
36	0x3d9b1a6a	0.075733975
37	0xbda65c6f	-0.08123099
38	0x3e09c907	0.13455592
39	0x3dbcac5f	0.09212565
40	0x3e0a888a	0.13528648
41	0x3d4ae306	0.049532913
42	0x3d19d843	0.03755976
43	0xbe172e9a	-0.14763871
44	0x3d00938c	0.03139071
45	0xbe1a15b1	-0.15047337
46	0xbdf8bb0f	-0.121450536
47	0x3dab01c6	0.08349948
48	0x3d983a0e	0.07432948
49	0x3d7cac94	0.06168802
