models/lstm_model.pth (torch, 133237 bytes, 9 tensors)

lstm.weight_ih_l0 f4 [200, 7]
000000 a5 49 e6 bc 05 28 39 3c 4e 89 b0 bd a3 6b 27 bd
       -0.028111288 0.011301045 -0.08619939 -0.040874135
000010 07 05 7e 3e fc 98 7c 3d 64 c7 b3 3d 6a d0 f4 3a
       0.24806605 0.061669335 0.08778265 0.0018677835
000020 79 a6 21 3e 2b 17 9b 3d 1e 76 99 3d ac ab 57 bd
       0.1578616 0.07572778 0.07493232 -0.052653953
000030 7a c6 bf 3d 5b f1 06 3e aa ae 22 bd e5 58 5a 3d
       0.09364028 0.13178007 -0.039717354 0.053307433
000040 4a 60 25 3e b8 72 21 3d ee a0 48 3e b9 8a 04 be
       0.16150013 0.039416045 0.1959264 -0.12943543
000050 6a 13 aa 3d 5d fc 22 3d bd f9 9b 3d 55 c4 12 3e
       0.08304484 0.039791454 0.07615993 0.14332707
000060 4d 85 ed bd 75 a3 68 3d e3 56 0b 3e 49 8a 02 3e
       -0.11597691 0.05679651 0.13607363 0.12748064
000070 31 84 23 3d 47 1c 06 3e 2c fd 10 3c 0d e9 26 bd
       0.03992099 0.13096724 0.008849423 -0.0407496
000080 a5 ee d0 bd 90 bc 2e 3d 70 69 15 3d 80 8f 4d bc
       -0.10201768 0.042660296 0.036477506 -0.01254642
000090 b1 cc 0e 3e ea b7 9c bc b2 75 81 3c 75 6b 08 3e
       0.13945271 -0.019130666 0.015803192 0.13322242
0000a0 50 ab cf bd 6c cc 8d bc da 04 09 3e eb 97 ec 3d
       -0.10140097 -0.01730939 0.13380757 0.115524136
0000b0 e6 42 b9 3d d5 2b 9a bb 7e 81 18 3d 00 2b a3 3c
       0.09045963 -0.004704932 0.03723287 0.019917965
0000c0 57 60 0a 3e d5 27 0d 3e 44 76 06 3d 64 b4 c2 bd
       0.13513313 0.13784726 0.03282763 -0.09507063
0000d0 5e 29 89 bd c8 a8 21 bc 72 01 f8 3d 33 f7 06 3e
       -0.06697343 -0.009866901 0.12109651 0.13180237
0000e0 28 32 d0 3d c6 3a 0d 3e 26 3b 73 bd 3b ce 87 bd
       0.101658165 0.13791952 -0.05938258 -0.06631132
0000f0 99 84 a7 3c 92 69 40 bd 42 e5 d1 bd 5f 6d f3 3b
       0.02044897 -0.04697568 -0.102488056 0.0074288095
000100 18 5d f8 3d 60 70 2e 3d 5d e2 d2 3d a7 cb ff 3c
       0.12127131 0.042587638 0.102970816 0.031225039
000110 44 26 ad bc ac b5 93 3d 01 eb 13 3e 9c 29 13 3e
       -0.02113641 0.072123855 0.14445116 0.14371341
000120 82 49 f2 3d 05 00 a8 3d 46 3a b6 bd 7e 86 f1 3d
       0.11830427 0.08203129 -0.088978335 0.117932305
000130 72 95 d1 bd cc 0d 0e 3e 9a ed aa 3d 4e bc 9d 3d
       -0.102335826 0.1387245 0.083461 0.07701932
000140 2e 76 09 3e d0 6a 34 3d 46 4f 90 3d 0e f5 dd bd
       0.13423988 0.044047177 0.0704637 -0.10837756
000150 b5 79 29 bc 34 bd 3b 3e 32 0a 33 3e 9c 77 f2 3d
       -0.010343959 0.18333894 0.17484358 0.1183922
000160 e4 d8 08 3e bc 7c 23 bd d6 68 7e bd f4 9b 1e 3e
       0.13363987 -0.039913878 -0.062111698 0.15489179
000170 8e e0 9f 3d 3e 58 58 bc 08 3e ab bd f8 3a 92 3d
       0.07806502 -0.013204632 -0.08361441 0.07140154
000180 30 be 15 bd 8b 9e 07 3e dd b8 21 3e b5 de c9 3d
       -0.03655833 0.13244073 0.15793176 0.09856931
000190 7f a4 b6 3d de b9 8a 3d ca 07 92 3c 5e 3b d0 3d
       0.08918094 0.067737326 0.01782598 0.101675734
0001a0 f2 9c f4 3d 4d df 18 3d 3f 3a 8d bd e3 97 b9 bd
       0.119439974 0.03732233 -0.06895875 -0.09062173
0001b0 b5 c2 1a 3e dc cc 00 3e b8 09 bd bd 52 b8 4f bd
       0.15113337 0.12578148 -0.09230369 -0.05071289
0001c0 83 b9 53 3d 41 7a 04 3d eb 9b c3 3d 0d 38 c4 3b
       0.05169059 0.032343153 0.09551223 0.005988127
0001d0 80 e9 08 3c f8 18 15 bd 52 e6 92 3d 0c b7 08 be
       0.008356452 -0.036400765 0.07172836 -0.13351077
0001e0 ca c1 af bd 1b 60 07 be f7 20 15 bc 7e ec 56 bd
       -0.08581884 -0.13220255 -0.009102098 -0.05247163
0001f0 6c c3 c9 3d 97 12 02 3e 2e 74 f1 3d 3f 6a a6 3d
       0.09851727 0.12702404 0.11789738 0.081257336
000200 04 21 f9 3d 1c 09 12 be 8c 2f 42 3d 86 9b cb bd
       0.121645 -0.14261287 0.047408625 -0.09941773
000210 e0 27 cd 3d b6 fe 62 3d ff 83 a6 bd 23 13 4b 3d
       0.10017371 0.055418693 -0.08130645 0.049578797
000220 5c 92 95 bc 01 dc 7b bc 94 cb 3e 3d 13 e7 d8 bd
       -0.018258266 -0.015372277 0.046580866 -0.10590949
000230 97 73 ec 3d bd 91 39 bd a3 2f f8 3d 04 db e6 3d
       0.115454845 -0.045305002 0.12118461 0.11272243
000240 39 a4 68 3e d2 75 8c bd 42 e3 29 bd d6 47 18 bc
       0.22718896 -0.0685841 -0.041476496 -0.009294471
000250 61 61 9b bd 10 2a 34 3e 74 a0 4f bd 39 06 3a bd
       -0.07586933 0.1759417 -0.05069013 -0.04541609
000260 4b 2c 95 bd 40 80 86 bd ad 60 8a 3c af 33 4e bd
       -0.07283839 -0.065674305 0.016891802 -0.050342258
000270 6a ec fc 3d c0 7b 8f bd 6c 5c 17 3e d2 6b 09 bd
       0.1234978 -0.07006025 0.1478135 -0.03355009
000280 5a df e0 3d cb d3 1f 3d 75 31 86 3d 5c d9 30 3d
       0.10980101 0.03902034 0.06552402 0.04317604
000290 dd 80 51 bd a5 ab ef 3d 90 29 f9 3c ec 8c 26 3d
       -0.051148284 0.117026605 0.030415326 0.040661737
0002a0 77 50 88 bc 55 b6 7a bd 78 01 00 3e f2 b2 3b 3b
       -0.016639931 -0.06120904 0.1250056 0.0028640595
0002b0 41 a9 f0 bd b0 bb f2 3c 55 f5 eb bd d6 ff 71 3d
       -0.117510326 0.029630512 -0.11521403 0.059081875
0002c0 b3 0c 04 be ba 9a 07 be 2d af 39 3d 6d c6 26 3e
       -0.1289547 -0.13242617 0.045333076 0.16286631
0002d0 d5 43 9e bd b4 fc 7b bd 84 ae e7 3c 33 a3 0e be
       -0.07727782 -0.061520293 0.028281458 -0.13929443
0002e0 1d 4e b1 3d 75 ab ba bd 8c 77 51 bb 80 60 fb 3b
       0.08657477 -0.09114734 -0.0031962125 0.007671416
0002f0 48 d9 be 3d c5 b2 55 bd 3e 65 8c 3d 37 96 9c 3d
       0.09318787 -0.05217244 0.06855248 0.07645839
000300 5b f4 da bd cf e5 3d bd 02 15 f8 3d ac 9d d5 3d
       -0.10691138 -0.04636174 0.12113382 0.10430464
000310 2e 1d 81 bd 11 9a 3d 3e bf 21 da bc 70 71 04 3e
       -0.06304394 0.18515803 -0.02662742 0.12933898
000320 09 11 6b bd 5e 72 c4 bd 31 b9 02 3e 69 4f 84 3d
       -0.057389293 -0.09592126 0.12765957 0.06460459
000330 62 03 0c 3e 1f 99 0b bc 48 85 1f 3c d9 27 de bd
       0.13673165 -0.008520394 0.009736367 -0.10847444
000340 e0 12 c1 bd b2 72 40 bd 99 c5 bf 3d d2 4d 3d 3e
       -0.09427428 -0.046984382 0.09363861 0.18486717
000350 58 b2 35 3e a7 7d 91 bd 9b 7a bd 3d 59 eb fd bd
       0.17743814 -0.071040444 0.09251901 -0.12398405
000360 f6 78 f7 3d 71 a8 97 bd ea bc 90 3d 2e fe 14 3e
       0.12083618 -0.074051745 0.070672825 0.14550087
000370 43 79 27 bd f2 dd 1b 3c 14 91 cc bc be 37 e4 3d
       -0.04088713 0.009513365 -0.024971522 0.111434445
000380 2c 02 1f 3e b0 80 97 3d 0e 49 94 bd 3f f0 a9 bd
       0.15528172 0.07397592 -0.072404966 -0.082977764
000390 e6 ad 7d bd e5 89 02 3e 8c 64 6d 3d bf 05 42 bd
       -0.06193342 0.12747915 0.057957217 -0.04736876
0003a0 8e c3 e8 3d 7a b8 b8 3d 7a fe 7d 3d f3 5e 39 3e
       0.11365424 0.09019561 0.062010266 0.18102627
0003b0 54 41 fb bd ea 10 18 bd 97 2b aa 3d 9c 74 03 3e
       -0.1226832 -0.037125506 0.08309095 0.12837452
0003c0 fc 02 3c bd 53 63 e8 bd 28 4e b8 3c 36 81 83 3d
       -0.045901284 -0.113470696 0.022498205 0.064211294
0003d0 de 7b ce bd 0b ba 63 bd 3b 8f 04 3e 90 3d 10 3e
       -0.100822195 -0.055597346 0.12945263 0.14085984
0003e0 91 c8 10 be 4c 95 41 3c d6 d0 82 3d 60 54 cb bb
       -0.1413901 0.01181538 0.063874885 -0.0062051266
0003f0 1f 28 fe bc f2 f3 9d bd 34 42 0c ba 5e 69 19 3c
       -0.03102499 -0.077125445 -0.0005350441 0.0093635

lstm.weight_hh_l0 f4 [200, 50]
000000 a0 15 a9 3d 04 10 de 3d f5 e3 9d 3d d1 88 f3 3d
       0.08256078 0.108428985 0.07709495 0.1189133
000010 3d 9e 20 3d 8e 1f d2 3d 72 72 ab bd a5 bf 08 3e
       0.039213408 0.10259925 -0.08371438 0.13354357
000020 5c e5 9c 3c d2 e2 db bd c8 0b b9 bd 23 2d 3c bc
       0.019152336 -0.10736622 -0.0903545 -0.011485371
000030 c2 8e b4 3d 1e d5 4e bc cb d3 81 bd a4 b2 b4 3d
       0.088162914 -0.012624053 -0.063392244 0.088231355
000040 95 56 57 3d 81 14 84 3c 91 d9 eb 3b d6 85 65 bd
       0.052572805 0.016123058 0.007197567 -0.05603584
000050 a3 b8 32 bd 9f f2 a0 bd c1 61 30 bd 17 8f 82 3c
       -0.043633115 -0.07858776 -0.043061975 0.015937371
000060 1e ac 58 bd 7e bc 03 be c3 80 e6 bd 84 45 fd 3b
       -0.05289852 -0.12864873 -0.11255028 0.007729234
000070 da df 3e 3d 75 57 b0 3a 67 67 16 bc 99 fa f9 bc
       0.0466002 0.0013453799 -0.0091799265 -0.030515002
000080 10 5b b5 bd 77 cb cc bd d6 7e 33 3d 55 2b 24 3d
       -0.088552594 -0.09999745 0.043822132 0.040080387
000090 e5 d6 c6 3d 5c cc 9f bd 0e 33 a4 3d 58 7e b7 3d
       0.09708957 -0.0780265 0.080175504 0.08959645
0000a0 82 af 08 3e ee a1 8e ba e8 8d 91 3d 6f 33 0d 3e
       0.13348201 -0.0010881999 0.071071446 0.13789152
0000b0 74 17 ef bd 9b 0e 81 3d b9 c7 5e 3d f7 ed a4 bd
       -0.11674395 0.06301614 0.05438969 -0.08053201
0000c0 4f 10 00 be ae 37 83 bd 90 31 da bd ab c1 9f 3d
       -0.12506221 -0.064071044 -0.106539845 0.07800611
0000d0 e1 ff 17 3d 68 25 c8 bd 26 b2 07 bd c2 25 02 3e
       0.03710926 -0.0977276 -0.03312888 0.12709716
0000e0 df 74 a8 bc 58 a3 23 3c 7e b4 06 3e 3b 14 88 3b
       -0.020563541 0.009987675 0.1315479 0.0041528023
0000f0 e6 d2 0b bd a2 04 4a bd 9c c2 bd bd 03 9b 40 3d
       -0.034136675 -0.049320824 -0.092656344 0.04702283
000100 c1 0b 31 be eb 46 3a 3e 47 bc 03 be d1 04 40 be
       -0.1728964 0.18191116 -0.12864791 -0.18751837
000110 99 25 09 3d 0e 1a 15 3e 6a ce 0b be 83 1e a0 bd
       0.03348312 0.1456072 -0.1365296 -0.0781832
000120 7b 94 f0 bc e8 cb 8c 3d cc f2 95 3d a4 89 09 3d
       -0.029367676 0.068748295 0.073217005 0.03357853
000130 a3 c5 53 bd 00 43 4a bd c8 4c b1 bd f8 98 05 be
       -0.051702153 -0.049380302 -0.08657223 -0.13046634
000140 88 6a e7 ba 03 3b a9 3d b7 fa 75 bd 5f 01 0e be
       -0.001765565 0.08263209 -0.060053553 -0.1386771
000150 18 12 e2 3c 76 00 fb bb 84 d4 b2 3d a2 60 08 bd
       0.027596518 -0.007659967 0.087319404 -0.03329528
000160 0a 9b 2c be 76 dd 38 3d 8d 64 29 be 96 ae dd bd
       -0.16856018 0.045133077 -0.16542263 -0.10824315
000170 0c f6 e5 3d 5f 0b 0c 3e c0 90 54 3d 10 52 4b 3d
       0.1122857 0.13676213 0.051895857 0.049638808
000180 4a ed 0f bd c6 74 05 3e 35 6f ea bd 8f fb 70 bd
       -0.035138406 0.13032827 -0.11446992 -0.058833655
000190 37 34 77 3d 1e b8 cc 3c d8 7c 1f bd ee 16 d0 3d
       0.06035253 0.024990138 -0.03893742 0.101606235
0001a0 69 af a0 3c 84 0f 4c 3d da b7 8d 3c 46 50 ad 3d
       0.019614892 0.049819484 0.017299581 0.084625766
0001b0 4c a5 0f 3d ae 3c ae 3d 20 f6 28 3e a1 87 6a bd
       0.03506975 0.085076675 0.16500139 -0.057258252
0001c0 db 2a ab 3d 5e 07 20 3d ba 09 21 bc 4b 40 c5 bd
       0.083577834 0.039069526 -0.009828979 -0.096314035
0001d0 c5 5d 07 3d f3 de cc bd 35 51 84 3d b3 e4 22 3d
       0.03304841 -0.10003462 0.064608015 0.039768886
0001e0 ad a9 d2 bd e0 2b e7 3d f3 63 be 3d 01 b5 a1 3c
       -0.10286269 0.11287665 0.092964076 0.01973963
0001f0 ae a3 1f 3e f3 55 a3 bb 0c d2 7c bc 60 26 e2 3d
       0.15589783 -0.004984611 -0.015430938 0.11042476
000200 38 0c 0f 3e e2 01 52 3d ea 25 c7 3c b6 44 0a be
       0.13969505 0.051271327 0.024310071 -0.13502774
000210 c7 03 b8 bd 3d 98 06 bd 57 d8 b6 bc 97 7c b5 3b
       -0.089850955 -0.03286003 -0.022319956 0.005538534
000220 10 37 6c 3d d8 9f 02 3e a0 a3 24 be 60 72 a8 bd
       0.0576697 0.12756288 -0.16078043 -0.0822494
000230 8b c1 d6 3d dd d1 62 3d 65 0a 08 bd 1e c2 82 bd
       0.10486134 0.055375922 -0.033213038 -0.06384681
000240 78 d5 86 bd 94 fa cd 3d 67 b3 05 3c 3b 81 c3 3b
       -0.06583685 0.100575596 0.008160449 0.005966333
000250 41 4d ca 3d e2 d7 a5 bd 14 fe de bd a8 62 d0 3d
       0.09878016 -0.08097817 -0.10888305 0.10175067
000260 eb 18 a4 bb c3 5f 85 bd b7 db d5 3d 53 d9 15 3e
       -0.0050078533 -0.06512406 0.10442298 0.14633684
000270 4f c5 0e 3e e3 b6 ac bd ce 2f dc bb 63 79 fa 3d
       0.13942455 -0.084333204 -0.006719566 0.12230184
000280 37 12 68 3d 39 68 cb 3d fe 38 38 bd 38 2b a6 bd
       0.056657996 0.09931988 -0.044976227 -0.08113712
000290 19 0e fb 3d 29 9b c0 3c 41 c1 46 bd ac cc b1 bc
       0.12258548 0.023511486 -0.048524145 -0.02170404
0002a0 7b 3e 98 bd 21 51 82 3c 51 f7 f4 bc 58 55 cb ba
       -0.07433792 0.015907826 -0.029903086 -0.0015513105
0002b0 bb ca 13 3e 65 73 e7 bd 03 f7 f0 3d 6c b1 92 bc
       0.14432804 -0.11301307 0.11765864 -0.017906867
0002c0 ab 21 0f 3e eb 04 a1 bd c2 da 05 be 51 31 f1 bd
       0.13977687 -0.07862266 -0.1307173 -0.117769845
0002d0 23 89 97 bc d4 f0 09 be 8a 75 00 3c 60 99 b2 bc
       -0.01849801 -0.13470775 0.0078405235 -0.02180165
0002e0 26 53 74 3d 02 28 e3 bd 65 e0 bc bd 00 3a 46 bc
       0.05964961 -0.11091615 -0.09222487 -0.012098789
0002f0 87 05 7a 3d dc 03 8e bc 9d 82 33 3c 68 fa a7 bc
       0.061040428 -0.017335825 0.010956434 -0.020505145
000300 55 8c 22 3d f6 dc ee bd f0 bb 85 3d 17 c6 1e 3b
       0.039684612 -0.11663239 0.06529987 0.0024226957
000310 ce 12 b8 3d c1 03 93 bc c0 07 c1 3d 66 df 95 bd
       0.08987962 -0.017946126 0.09425306 -0.073180005
000320 b0 0d a5 39 dd d3 8e bd bf 98 72 3d ad de 82 bd
       0.0003148145 -0.069740035 0.0592277 -0.06390128
000330 72 0c 4c bc 30 cf b6 bd 7c 93 aa bd b5 7c c8 bd
       -0.012454139 -0.08926237 -0.08328912 -0.09789411
000340 0f 7d b8 bc a3 d8 f1 3d 5e 65 10 3e 27 5a b7 3d
       -0.02252057 0.11808898 0.14101169 0.08952742
000350 f1 d9 ac bd c4 91 05 ba 7b 65 1a 3e 19 04 94 3a
       -0.084400065 -0.0005095268 0.15077774 0.0011292725
000360 f5 4d ae 3d d3 54 b3 bc 91 5c c0 bd 13 4c 7f 3d
       0.08510963 -0.021891033 -0.09392656 0.06232841
000370 35 7f f0 bd 90 58 ac 3c 9c 94 09 bd bf 02 1c 3e
       -0.11743013 0.021038324 -0.03358899 0.15235423
000380 42 8f 83 bd 46 36 43 3b f9 eb b8 bc cd 1a d4 3d
       -0.06423809 0.0029786988 -0.022573458 0.10356674
000390 63 f0 b6 3b 7c e3 0f be f7 1c f8 3c b4 4b ad 3d
       0.0055828555 -0.14051622 0.030287249 0.08461705
0003a0 a1 58 ec bc 3f 43 54 bd 16 a4 b3 bd 7a 23 a6 bd
       -0.028850855 -0.051821943 -0.08771531 -0.08112235
0003b0 cf 3a 52 3c 8c 57 1c 3c f2 32 0f 3e 3d 07 bb 3d
       0.012831404 0.009542357 0.13984278 0.0913224
0003c0 01 13 c2 bd e1 78 b1 bc 8b 55 d2 3d f9 91 ff 3c
       -0.09476281 -0.021664085 0.10270222 0.031197535
0003d0 94 23 cc bc c3 55 76 3d 85 37 cc bd 12 c7 a1 3d
       -0.024919309 0.060140382 -0.09971527 0.07899298
0003e0 4b a2 d2 3d be 0b 96 bc b6 c6 3f 3d a7 0e f6 3c
       0.10284861 -0.018316146 0.046820365 0.030036284
0003f0 8a 37 eb bd 1f 3f 24 be 00 b5 f2 bd 3d 8a 17 3d
       -0.114852026 -0.16039704 -0.11850929 0.03699707

lstm.bias_ih_l0 f4 [200]
000000 11 55 88 bd 1b 1f e4 3d 17 92 26 3c 2c c1 29 bb
       -0.0665685 0.111387454 0.0101666665 -0.0025902493
000010 76 45 b2 bd ec e6 4f bd f3 ef de bd 75 ac a3 3d
       -0.08704655 -0.050757334 -0.108856104 0.07991878
000020 a4 1e bc bc f8 60 e3 3d 6a 9b 6f 3c ba 0e f4 3d
       -0.02296383 0.1110248 0.014624456 0.11916871
000030 ee 6c 98 3d 62 e0 f6 bd dc 94 c4 3d 78 5b 7a 3e
       0.07442652 -0.120545164 0.09598705 0.24448955
000040 30 87 7e 3c 70 75 2a 3d a7 24 dd 3d 44 d3 12 3e
       0.015535161 0.041615903 0.107980065 0.14338404
000050 52 b8 3c 3e 54 dc 6a bd a5 46 78 3d 76 1a 40 3d
       0.18429688 -0.057339028 0.060614247 0.046900235
000060 a9 c5 8b 3d 71 c5 7e 3d 69 45 4e bb 86 47 dd 3d
       0.0682481 0.062200014 -0.0031474477 0.10804658
000070 ea a0 c7 3d 7a c0 86 bb 56 d3 99 bc b2 29 0d 3e
       0.09747489 -0.0041123005 -0.01877753 0.13785437
000080 d1 3d 28 bd 79 b0 a6 3c 06 e1 6a 3d c8 e0 84 bc
       -0.041074578 0.02034782 0.057343505 -0.016220465
000090 90 be c2 bd 2f 52 06 3e c5 7b af 3d c6 0d dd bc
       -0.09509003 0.13117288 0.08568529 -0.026984107
0000a0 86 55 f5 bc 38 a3 ce 3d 20 fe 29 3d 34 19 83 ba
       -0.029948007 0.10089725 0.041502118 -0.0010002018
0000b0 b8 bc f7 bd b9 d8 a6 bc d8 ed 41 bd e4 2a 9f 3d
       -0.12096542 -0.020367013 -0.047345966 0.077718526
0000c0 00 11 d3 3d 0c 56 89 3d a9 d8 3c bd f6 6c c4 bd
       0.10305977 0.06705865 -0.04610506 -0.09591095
0000d0 1b 7e df 3c d1 a0 e8 bc a2 58 04 be 12 06 a1 bd
       0.027281811 -0.028396996 -0.12924436 -0.07862486
0000e0 b4 c5 d5 bc cd 80 cc 3d 6a 05 47 3d a7 07 ed 3d
       -0.026095249 0.09985504 0.048589148 0.11573725
0000f0 cb 21 db 3d 6e 4d c1 bd 7f fb b5 bc 72 2c 08 3d
       0.10699805 -0.09438597 -0.02221465 0.03324551
000100 02 b7 fa bd 83 09 e2 3b d2 de 9e 3d 53 5d a4 3d
       -0.12241937 0.0068981065 0.07757343 0.08025613
000110 2b b9 eb bd 7d f3 19 3d 1d 0f 19 bd 47 bd 78 bd
       -0.11509927 0.037585724 -0.03736793 -0.060727384
000120 8a 2e bf bd 4d 5b ef bd 0d bd ce 3d 7d 80 1a bd
       -0.093350485 -0.11687336 0.10094652 -0.037720192
000130 71 a4 67 bd 3c 39 f9 bd ce 75 ea bd 87 62 04 be
       -0.056553308 -0.1216912 -0.11448251 -0.1292821
000140 e6 6e 5e 3d 04 c2 f2 bb 7f 8a 8a bd b8 21 ae bd
       0.05430498 -0.0074083824 -0.06764697 -0.08502525
000150 59 78 d3 3d a9 10 c1 bd dc 7b 6a bd 82 33 c5 bd
       0.10325689 -0.09427006 -0.057247028 -0.09628965
000160 ce ad a4 3d 66 92 71 3d 17 95 9b 3c f7 6c 13 3e
       0.08040963 0.058977507 0.01899199 0.14397036
000170 b6 3a d2 bd ca 0e e2 3d 6b bd 37 3d 09 26 a5 bd
       -0.102651045 0.11037977 0.044858377 -0.08063895
000180 4a 97 4d 3c 97 0c 02 be 7f d6 05 3d c3 b4 71 bd
       0.012548277 -0.12700115 0.032675263 -0.05901028
000190 ae ee db bb a7 0a ee 3d 8c c0 aa bb 64 41 9b bd
       -0.0067118024 0.116231255 -0.0052109417 -0.07580832
0001a0 a3 32 d4 bc 04 b0 b6 3d 15 aa 38 3d 15 0e d5 bd
       -0.025903052 0.08920291 0.045084078 -0.104030766
0001b0 4c ed 6e bc 44 a0 02 be ec e9 a1 3b be 52 a8 bd
       -0.014582943 -0.12756449 0.0049412157 -0.08218907
0001c0 ea 0c 0a 3d 35 be d8 3d d0 36 2e bc c1 9c 33 3d
       0.033703722 0.10583154 -0.0106331855 0.043850664
0001d0 7b ed 84 3d 12 29 85 bd be 8d a2 bd 75 45 5d 3b
       0.06490608 -0.06501974 -0.079371914 0.0033763323
0001e0 e2 0e 40 3c 8b 60 a6 3d 1c 9d 8a bd af 36 c6 bd
       0.011722298 0.08123883 -0.067682475 -0.09678399
0001f0 ba b7 9f 3d a2 f4 2f bc 23 54 af bd a6 a1 16 3d
       0.07798715 -0.010739477 -0.0856097 0.036775254
000200 8d 08 14 3d 37 67 5f 3d bb f0 bb bd 96 4a 07 3e
       0.036140967 0.054541793 -0.09176775 0.13212046
000210 6f 8c fe bd 1c 1f 44 bd e0 2d 35 3d cf 26 a8 3d
       -0.12429129 -0.04788123 0.044233203 0.08210527
000220 ba 3c d1 3c 14 c8 25 bd 93 fd 94 bd df 92 e7 3d
       0.025541652 -0.040474012 -0.07274928 0.1130731
000230 ca 87 e2 bd cd 81 9c 3d b3 dc f2 bd 1a a0 c5 bc
       -0.11061056 0.07641945 -0.11858501 -0.024124194
000240 f3 2a 9b 3c cc 17 86 bd c5 62 91 bc 25 91 2b bd
       0.018941378 -0.06547508 -0.017747292 -0.041886467
000250 f8 e7 e0 bb e0 85 b2 3c e6 65 a3 3d 1b 8a 07 3e
       -0.0068635903 0.021792352 0.0797842 0.13236277
000260 3a f9 15 3e 42 69 1a 3d 3e 55 4d 3b 80 ff 42 bc
       0.14645854 0.037698038 0.0031331326 -0.011901736
000270 d0 36 05 3e 7e 98 fe bc 7d fe e8 bb 54 eb 2d 3c
       0.1300919 -0.031078573 -0.0071104155 0.010615189
000280 d5 a7 87 bd d7 92 9d bc 36 00 36 3d fd 25 d9 bd
       -0.06623808 -0.019235058 0.044433795 -0.10602949
000290 0c 45 b9 3c d4 af 2b 3e b5 46 4f 3d 11 45 e7 bd
       0.022615932 0.16766292 0.05060454 -0.1129247
0002a0 43 f9 54 3c 91 e9 d0 bd 3b 73 c2 3d 6c 75 28 3e
       0.012998882 -0.10200799 0.09494635 0.16451043
0002b0 88 5b 31 bd 9b bd df bd a2 8a 0d bd d7 be f3 3c
       -0.04330018 -0.10924836 -0.03455604 0.029754085
0002c0 6d 59 9c bd 4d 1f 6e 3c 54 19 b4 bd 94 1b cd bd
       -0.07634244 0.01453383 -0.087938935 -0.10015026
0002d0 ea 2b 0d 3e 08 1c e8 3d 28 77 d4 bd 1c 46 29 bd
       0.13786283 0.113334715 -0.1037429 -0.041326627
0002e0 ea fa ea bd 46 fc a4 3d 1b 1b e6 3d 34 11 d6 bd
       -0.11473639 0.0805593 0.11235639 -0.104525
0002f0 69 20 88 bc 76 47 34 3e fb 9b cf 3d f7 2a 15 bd
       -0.016617017 0.17605385 0.10137173 -0.036417928
000300 ce 80 b3 bd 98 72 ed bd d5 a8 0f be 45 4c bd 3d
       -0.08764802 -0.11594123 -0.14029248 0.09243063
000310 50 31 e0 3d 18 20 9b bd 2a d7 c3 3d dc a7 0f 3e
       0.109469056 -0.07574481 0.09562524 0.14028877

lstm.bias_hh_l0 f4 [200]
000000 3f 72 b7 3d 8f 86 84 3d 71 76 9e 3d 7c e2 a1 3c
       0.089573376 0.064709775 0.07737435 0.019761316
000010 de 70 fa 3c aa 04 20 3e 9e 8e 01 bd 7e 7f eb 3b
       0.030571397 0.15626779 -0.03163015 0.007186829
000020 04 01 28 bd 21 9a 0b 3e df 9f 2c bd e3 84 dd 3c
       -0.041016594 0.13633014 -0.042144652 0.027040904
000030 3f 1f 18 3e f1 a4 0d 3e 10 58 b5 bc a4 0f e8 3d
       0.1485567 0.13832451 -0.022136718 0.11331108
000040 81 ab a6 bd 28 5a 02 3e 79 3e ad 3d d6 86 97 3d
       -0.081381805 0.12729704 0.08459181 0.07398765
000050 47 2f 2f 3e 6d 54 d5 3d 8f 33 ac 3c 12 c8 6d 3d
       0.17107879 0.104164936 0.021020679 0.05805213
000060 89 e9 97 bd ef 95 13 be 03 94 3d 3c 78 39 e9 3d
       -0.0741759 -0.14412664 0.011570933 0.113879144
000070 ee 98 b1 3c bc 06 d3 bd 2e 75 0e 3e 68 9d f2 3d
       0.021679368 -0.10304019 0.13911888 0.11846429
000080 bd 44 f3 3d 46 2b 25 3e 60 50 2f bd 2c 10 43 bd
       0.11878345 0.16129789 -0.04280126 -0.047622845
000090 e6 91 01 3e c9 ce bd bd 8e 4d eb bd 48 06 2e 3e
       0.12653312 -0.09267957 -0.11489402 0.16994584
0000a0 87 d4 1e bd 2e 6a d6 3d ba 55 f1 3c 63 92 b2 bd
       -0.0387769 0.10469471 0.029459823 -0.08719327
0000b0 a9 f1 4c bd 7a c7 d1 bd 0e e4 65 3d 46 11 6d 3d
       -0.050035153 -0.10243125 0.056125693 0.0578778
0000c0 b0 6b bc 3d 2a a7 b1 3b 67 3f 64 3d f4 c0 fd 3c
       0.09200227 0.005421539 0.055724528 0.030975796
0000d0 8c dc ee bc 97 18 82 3c 4c 23 65 bd fb 98 89 bd
       -0.0291579 0.015880866 -0.055941865 -0.06718632
0000e0 7c 3a af 3c 5d 78 a2 3d 0e 80 00 3c 5a aa 34 3d
       0.021390192 0.07933114 0.007843031 0.044107772
0000f0 af a4 a0 bd 85 46 19 bd 37 41 86 bd 52 1b 3a 3d
       -0.07843911 -0.03742077 -0.065554075 0.04543621
000100 07 e0 d0 3d 28 1b c6 3d 4a da 77 bd 62 ce 97 bc
       0.1019898 0.096731484 -0.06051091 -0.018531028
000110 63 4c 04 be dd e4 b9 3c 3a f1 27 bd c9 ef fd 3c
       -0.12919764 0.022692138 -0.041001536 0.030998128
000120 44 cb cb 3b f9 de 9c 3d ad 4d 10 be 91 25 c6 3c
       0.0062192995 0.07659716 -0.14092131 0.024187835
000130 cd 6a c7 bd c5 f8 54 bd c2 3c 20 3d 56 ba fa bd
       -0.097371675 -0.051995058 0.039120443 -0.12242572
000140 2b cb d1 bd 5a 28 79 3d ac 03 ed 3d 2e 15 91 bd
       -0.10243829 0.060829498 0.11572966 -0.07084118
000150 d2 63 77 3d b5 f3 dd bd 20 c2 40 3d fa 77 ab 3d
       0.06039793 -0.10837499 0.047060132 0.08372493
000160 24 46 47 bd 56 43 b2 bd cb dd c9 bd b3 e9 10 3e
       -0.048650876 -0.087042496 -0.09856757 0.14151649
000170 f9 ef 69 3b f9 19 44 bd ae 3e e1 bd 6f d8 9a 3d
       0.0035696013 -0.047876332 -0.10998283 0.07560813
000180 20 45 0b be 41 44 a3 3d f3 e6 0a 3e 1f 01 01 3d
       -0.13600588 0.07972003 0.13564663 0.03149521
000190 9d b7 0a 3e 59 22 23 bd 23 6f 30 bd 7a d4 ee bc
       0.13546605 -0.03982768 -0.04307474 -0.029154051
0001a0 c4 e9 d7 bd e5 5d 4b bd f1 71 8f 3d 37 af d7 bd
       -0.10542634 -0.04965009 0.070041545 -0.105314665
0001b0 71 17 a0 3c 2e 98 aa bd d4 c1 e0 3c 4f 54 d2 3d
       0.019542428 -0.08329807 0.027436174 0.10269987
0001c0 40 84 c5 bd 48 0e e3 3b ad ca d4 3d d5 08 d6 3c
       -0.09644365 0.0069291927 0.1039022 0.026127258
0001d0 1d 78 34 bd ec e5 42 3d 98 8b af 3d 54 b4 92 3d
       -0.04405986 0.04758255 0.08571547 0.07163301
0001e0 ca 5c 80 3d b7 94 f8 bd 87 bc d2 3d c3 0d 82 3d
       0.06267698 -0.1213774 0.10289865 0.06350281
0001f0 9c e3 05 3d 1c db 42 bd 61 5c 85 bd 9c 72 f8 bd
       0.03268777 -0.04757224 -0.065117605 -0.12131235
000200 c5 3d c5 3d 2f f4 f0 bd 3d 97 da 3d e2 5b b1 bd
       0.09630922 -0.11765324 0.10673378 -0.086601034
000210 66 d4 54 bd ac b8 42 3c 3e be e0 bd ce 33 4d bd
       -0.05196037 0.0118848495 -0.10973786 -0.050098233
000220 a9 ad 12 be b6 52 86 3d 82 37 00 be c8 57 0f be
       -0.14324059 0.065587446 -0.12521175 -0.1399833
000230 6f f0 80 3c 23 3b a3 3d 25 8b 8e bd 2c 66 ef 3d
       0.015739648 0.07970264 -0.069601335 0.116894096
000240 49 b4 82 3c 68 c6 8d bd 2c 18 97 3d b1 d2 d7 3d
       0.015955107 -0.069226086 0.07377657 0.10538233
000250 13 06 b2 bd 93 fc c8 3d 80 42 e1 3d 38 de b1 bd
       -0.08692565 0.098138 0.10999012 -0.08684963
000260 72 1c 95 3d be 50 15 3d 76 7c e8 3d e8 22 86 bb
       0.07280816 0.036453955 0.11351864 -0.0040935166
000270 a8 27 d5 bd 1f f7 f3 3d 81 71 16 3e 89 0b 5a bd
       -0.104079545 0.11912369 0.14691736 -0.053233657
000280 04 ae ca 3d 08 6c de bd 9c ad b4 bd 2f fe aa bc
       0.09896472 -0.10860449 -0.08822176 -0.020873157
000290 1b 6f d5 bb ac 3b 70 3e 67 7d 65 bd 2b 17 eb 3a
       -0.006513489 0.23460263 -0.056027796 0.0017935982
0002a0 bb 65 aa bc 60 52 fb bc e3 5a 87 bd b5 94 fd ba
       -0.020800462 -0.030678928 -0.06609132 -0.0019346686
0002b0 f2 ae fb 3d 8f a3 a5 bd 62 f8 c2 3d 54 7f d8 bd
       0.122892275 -0.08087837 0.095200315 -0.10571161
0002c0 65 6b db bd 66 ff a3 bd e8 ba 3f bd 43 34 87 bd
       -0.10713843 -0.08007698 -0.046809107 -0.06601765
0002d0 56 87 84 bd 7a d2 15 3e 9b a8 2a 3d 00 d3 e8 3d
       -0.06471126 0.14631072 0.0416647 0.1136837
0002e0 9d 44 03 3e 9e 50 b1 3d c4 1a 24 3e 15 23 36 bd
       0.12819143 0.08657955 0.16025835 -0.04446705
0002f0 6a d7 2b 3d 55 2a 30 3d 81 94 ba 3c ed df 33 3d
       0.04195348 0.04300912 0.02277589 0.043914724
000300 98 c2 f8 bd 14 47 7c bd 4d 7b 08 3c 40 96 d7 bd
       -0.12146491 -0.061591223 0.008330178 -0.10526705
000310 56 d3 b1 3d 3b dc 06 3e 11 f1 4d 3d 7e 99 22 bd
       0.08682887 0.13169949 0.050278727 -0.039697163

lstm.weight_ih_l1 f4 [200, 50]
000000 0c 92 21 be 6f a2 08 be 4a 6f 1e be 4c a4 09 be
       -0.15778369 -0.13343213 -0.15472141 -0.1344158
000010 85 f0 d8 3d 4f fe a2 bd e4 51 6b bc 52 5c 81 bc
       0.105927505 -0.07958662 -0.014362786 -0.015791092
000020 7f 01 37 bd 84 53 e0 3d db e4 6a bc 1a 86 ed 3c
       -0.04467916 0.10953429 -0.01433679 0.028994609
000030 a8 39 05 bd eb e6 99 bd e0 2a a1 3d 33 c8 57 bd
       -0.03252569 -0.07514747 0.07869506 -0.05268116
000040 33 3b c8 3d ea 2f da 3d f6 c4 50 3d 59 e6 3b bd
       0.09776916 0.1065367 0.050969087 -0.045873974
000050 b9 b8 6f bd 8f 6f 39 3d dc 80 d5 3d 16 b4 77 bd
       -0.058525775 0.045272406 0.104249686 -0.060474478
000060 cb 46 b0 3d 5f 98 d4 3a c4 81 e4 3d 56 bd 11 be
       0.08607253 0.0016219727 0.11157563 -0.14232382
000070 41 7c 48 bd 9e 25 b7 3d 07 4f 2a 3d e2 95 54 3d
       -0.048946623 0.08942722 0.041579273 0.051900752
000080 02 25 12 3d d9 9e a9 3c 1f 87 c7 bd 6f f0 bb bd
       0.035679825 0.020705627 -0.09742569 -0.091767184
000090 72 b2 ff 3c 35 f3 6b 3d 74 2c e3 bd 65 e8 1c bd
       0.031213019 0.057604987 -0.11092463 -0.038307566
0000a0 38 d3 9f bd 27 30 4a bc 4f d5 96 3d 5f 8a c8 bd
       -0.07803959 -0.012340582 0.07364904 -0.09792017
0000b0 6a de 02 3e f1 56 03 be 9f 9e 69 bc af a1 89 bc
       0.12780157 -0.12826134 -0.01425901 -0.01680073
0000c0 aa 65 84 3d a3 fc 08 3e 9c 38 ac bd 4d c6 aa ba
       0.064647034 0.13377623 -0.08409235 -0.0013029069
0000d0 1e 34 83 bc c7 99 08 be c8 fb 6f bd a2 ba 6e 3d
       -0.016016062 -0.13339911 -0.058589727 0.058283456
0000e0 9f d7 80 3d 8b ea a1 bd 5f 7e 9c 3d 23 48 7d bc
       0.062911265 -0.07906064 0.07641291 -0.015459093
0000f0 81 e8 8e 3d 94 07 b5 3d 33 6c d6 3d 4a 6b c3 3d
       0.0697794 0.08839336 0.10469856 0.09541948
000100 88 dc 23 3e f5 a1 d7 bc f6 65 59 bd eb 90 f2 3d
       0.16002095 -0.026322344 -0.053075753 0.11844047
000110 8d 5f 89 3d 34 a6 8c bd 80 c8 0b be 9f 5f 6d 3c
       0.06707678 -0.06867638 -0.13650703 0.01448813
000120 8f 7a 75 3d df 51 93 3a ee a1 47 3c 51 49 13 3e
       0.059931334 0.001123961 0.012184603 0.14383437
000130 97 87 cf 3d 31 0b b5 3c c3 33 02 bd 6e 5d 20 3d
       0.101332836 0.022100063 -0.031787645 0.0391516
000140 8f 7b a0 bd b0 ed 05 3e b9 85 10 bd f5 66 e7 bd
       -0.07836067 0.13078952 -0.035283778 -0.11298934
000150 be 41 89 3d 85 9e ad bd 0e 56 fd 3d 25 d8 c8 bd
       0.067019925 -0.08477501 0.12369929 -0.09806851
000160 de 1b 06 3d 8e b1 74 bd e1 11 00 3e 40 8b 37 bd
       0.03274142 -0.05973964 0.1250682 -0.044810534
000170 bf 85 a1 3d 36 72 a6 bc ec 28 cd 3d c8 39 33 3d
       0.07886838 -0.020318132 0.10017571 0.043756276
000180 7d b1 b8 3d 9e 00 d4 bc df 59 f6 3d dd 46 04 bc
       0.09018228 -0.0258792 0.1202886 -0.008073536
000190 dc 8e e1 bc c5 14 d6 bc 9a b6 93 bd ad 38 f8 bd
       -0.027533941 -0.02613295 -0.07212563 -0.12120185
0001a0 a8 14 25 3d 6b 85 ab 3d 74 17 10 3c 0f 4b 02 3e
       0.040302902 0.08375057 0.008794654 0.12723945
0001b0 d3 cc be bd 76 d2 9b bc a8 ec c3 bd a2 f4 32 bd
       -0.09316411 -0.019021254 -0.09566623 -0.04369033
0001c0 4e fa b1 3d 24 01 0d 3d 25 e7 c2 bb bd 09 d9 bd
       0.0869032 0.034424916 -0.0059479647 -0.105975606
0001d0 5a 9d 9d bc 67 e4 82 bd e9 80 5b 3d 05 06 27 3d
       -0.01924007 -0.063912205 0.053589735 0.040777225
0001e0 c5 17 57 3d d2 45 c3 bd e4 44 74 3d 3b 36 31 bc
       0.052512903 -0.095348015 0.05963601 -0.010816152
0001f0 aa 21 e0 3c e7 0b 48 3d 24 33 b2 bd 42 1d 00 3e
       0.027359802 0.048839476 -0.087011606 0.12511161
000200 b2 6a f6 38 44 47 3d 3d 44 d0 31 3d f3 f3 0f be
       0.00011750068 0.046210542 0.04341151 -0.14057903
000210 2c 9a 9d bc 87 c7 b8 3c f4 0c df 3b b4 8c 49 3d
       -0.019238554 0.02255608 0.006806964 0.04920645
000220 c6 31 43 3d 36 ca c1 3d 02 96 f3 bd b0 5b be bd
       0.04765489 0.09462397 -0.11893846 -0.09294832
000230 fe 13 b8 bd af 07 b8 bd 85 26 0e 3e 4b 22 11 3d
       -0.08988188 -0.089858405 0.13881882 0.035433095
000240 4a 02 35 3d f4 05 13 bd fd 4c 66 3c 68 a2 9a 3d
       0.044191636 -0.03589435 0.014056441 0.07550508
000250 82 ee 9b bd 75 a5 81 3d 2c 86 b9 bd f6 fe be 3d
       -0.07613851 0.063303865 -0.090587944 0.09325974
000260 0d 56 e5 3d 3f 16 d2 bc a4 93 87 bd 87 6f b1 bd
       0.111980535 -0.025645373 -0.06619957 -0.0866385
000270 b3 b8 ee bd 6b ef 11 be 45 88 90 3d 50 15 1d be
       -0.11656322 -0.14251487 0.07057241 -0.15340161
000280 14 ca b2 3d 35 68 41 bd 5a 05 a3 3d f6 a0 00 3e
       0.087299496 -0.04721852 0.07960005 0.12561402
000290 55 96 13 bd 78 06 23 bd aa 7c 55 3d d8 45 74 3c
       -0.03603204 -0.03980109 0.052120842 0.01490923
0002a0 37 ea 8d 3d c3 d5 4e 3d ef 92 3a be 58 8a 9b 3d
       0.069294386 0.050496828 -0.18220113 0.07594746
0002b0 1d da c2 3c 45 42 08 bb c0 2a 70 bd 89 93 ba 3d
       0.023785645 -0.0020791453 -0.05863452 0.09110171
0002c0 0c bf 09 3d fc 74 76 bd ec 91 39 3d 6d 39 0f be
       0.033629462 -0.06017016 0.045305178 -0.1398675
0002d0 7d 78 99 bd 05 cd e9 bc bb 69 ae bc 69 66 25 3c
       -0.074936844 -0.028540144 -0.02129065 0.010095217
0002e0 35 01 02 be a0 d0 c8 bd 72 ea 04 3e 47 b7 10 3e
       -0.12695773 -0.09805417 0.12980059 0.14132415
0002f0 ae 7a e7 bd 29 36 02 be a4 51 ac bd ee f9 e1 3c
       -0.11302696 -0.12715973 -0.08414009 0.027584996
000300 9a 17 5d bd 58 48 a8 bd ee be 23 bd 68 ab 60 bd
       -0.053977586 -0.082169235 -0.039977007 -0.054850966
000310 1f 97 44 bd 12 5c 92 3d 4e b0 06 bd 09 6a 96 3d
       -0.047995683 0.07146467 -0.03288298 0.07344443
000320 38 2e c2 3d e2 3f b3 bd ac 45 dd bb 3c 95 e2 3d
       0.09481472 -0.08752419 -0.0067526903 0.110636204
000330 97 be 35 bc ce e7 b9 bd 55 47 0a 3e b1 38 12 be
       -0.011092803 -0.09077416 0.13503774 -0.14279439
000340 5b 79 ef bd 24 51 ad bd f3 cb 07 3e 1c fb 06 3d
       -0.116930686 -0.08462742 0.13261394 0.03295432
000350 55 fa ae 3c 85 a4 03 bd e4 7e b1 bd d4 ea 9e bd
       0.021359602 -0.03213932 -0.086667806 -0.07759634
000360 77 45 81 3d 8d fe 2a be a7 85 be bd 4f 29 15 bd
       0.063120775 -0.16698666 -0.09302836 -0.036416348
000370 b5 ab f3 bd bf 45 43 3d 31 9f 56 bd 79 23 77 bd
       -0.11897985 0.047673937 -0.05239791 -0.060336564
000380 46 2c 4e bd bb 0d 9f bd 24 5d 90 3c e5 f2 2f 3d
       -0.05033519 -0.07766291 0.017622538 0.04295625
000390 a0 2a fa bc cd 39 a4 bd 9b 37 ac bd 14 11 cd bc
       -0.030537903 -0.08018837 -0.084090434 -0.025032558
0003a0 d5 b8 0d be 60 e8 a9 bd 0a a4 00 bd 61 28 d5 bd
       -0.13840039 -0.08296275 -0.03140644 -0.10408092
0003b0 8a 33 88 3d 56 4c b8 3d 7b d8 83 bd 94 71 5c bc
       0.06650455 0.08998935 -0.06437775 -0.0134548135
0003c0 39 b1 ad 3d 21 f8 eb 3d 9f 60 cb bd a8 1c 92 bc
       0.08481068 0.11521936 -0.099305384 -0.01783593
0003d0 5f 19 f3 3c 14 c6 d3 3d de 74 1d bd ec 96 ca bd
       0.029675184 0.10340515 -0.03844153 -0.09892067
0003e0 b9 aa 73 bd df db b3 bc 24 ef 8c bc 48 83 8f bd
       -0.059488986 -0.021955429 -0.017203875 -0.07007462
0003f0 98 b2 f4 bd 8b 16 24 bd e4 71 55 3b a9 cf 00 bd
       -0.119481266 -0.04006056 0.0032569105 -0.03144804

lstm.weight_hh_l1 f4 [200, 50]
000000 c5 b1 ac bd 5f 93 e5 bd 86 b8 ad bc 82 bd e9 bd
       -0.08432344 -0.112097494 -0.021206152 -0.11413099
000010 33 89 01 3e 2d 85 13 3e 3c b9 a8 3d a3 2a 9b bd
       0.12649994 0.14406271 0.08238456 -0.07576492
000020 91 d3 18 3d 1a 19 cb 3c 57 c8 ce bd fa e7 41 bd
       0.03731114 0.024792243 -0.100968055 -0.04734037
000030 40 50 03 3e 4c a1 9e bd 43 d7 06 be 6a c6 ea 3d
       0.12823582 -0.07745609 -0.13168053 0.11463626
000040 a0 38 a0 bd 80 77 d3 3c 2b e9 d8 3c 21 2d a8 3d
       -0.078233 0.025813818 0.02647837 0.08211733
000050 54 e4 4a ba 7d 29 e0 bd d3 db ee bd 9e b5 03 be
       -0.0007739712 -0.10945413 -0.11663022 -0.1286225
000060 45 b7 e2 3d a9 64 ad bd 5d 9b 0c 3e 2b 13 19 bb
       0.11070112 -0.08466465 0.13731141 -0.0023357372
000070 f4 73 14 3e 7a e1 8f bd f4 9d 0c 3e 2e 74 0c 3d
       0.14497358 -0.07025428 0.1373213 0.034290485
000080 12 81 12 3e 9f 8f f7 3d 3c 10 f0 3d 6d 2c 18 3d
       0.14307049 0.120879404 0.117218465 0.037151743
000090 3f d6 2d 3b 41 84 50 bd f6 75 ab bd 6c d8 de 3d
       0.0026525406 -0.050907377 -0.08372109 0.10881123
0000a0 9d ae 2c 3d 1f e9 5b bd 14 b3 d4 3d 85 2d 1d 3e
       0.04215871 -0.05368912 0.10385719 0.15349396
0000b0 51 13 1a be 82 d4 cb bd d3 ce b6 3c dd 42 ec bd
       -0.15046431 -0.09952642 0.022315418 -0.11536191
0000c0 b9 8e cf bc 50 15 90 bc 98 6c 70 3d a6 a7 3e 3d
       -0.02533661 -0.017588288 0.058697313 0.0465466
0000d0 37 e1 b1 3d b4 98 10 3e e4 29 2a bd 05 05 c0 3d
       0.086855344 0.14120752 -0.041543856 0.093759574
0000e0 8e 3c 10 3d ca 95 1d bd 6f 54 55 bc f3 f5 08 be
       0.035214 -0.038472928 -0.013020619 -0.13375072
0000f0 06 c7 cd bd 6d 58 02 3d 04 3f 0b bd b3 d8 01 3d
       -0.10047726 0.03182261 -0.033995643 0.0317008
000100 b2 93 e1 bd 40 02 8d bd cf 96 7e 3d 3b 21 74 3d
       -0.11014499 -0.06885195 0.06215554 0.059602004
000110 94 ed 9a 3d 23 db 51 3d 2e c6 83 bd 4f 9a ad bb
       0.07564846 0.051234376 -0.06434284 -0.005297936
000120 b6 ee bc bc dc ea 9e bd ef 28 8c bc fe 02 32 be
       -0.023063045 -0.077596396 -0.017109362 -0.17383954
000130 a6 7d c5 3d 04 bf f5 bb 3c a2 da 3c f7 fa 09 be
       0.09643106 -0.0074995775 0.026688688 -0.13474642
000140 f3 61 07 be ea 41 a2 bd 50 f1 ff 3d 2a 59 3d be
       -0.13220958 -0.07922728 0.124971986 -0.18491045
000150 90 85 20 bb c2 15 77 3d 9e d9 bc bc 3f af 8d 3d
       -0.0024493672 0.060323484 -0.023052987 0.06918191
000160 46 c3 bc bd 5a 72 bb bc cc f3 bb bc 28 4c 1b be
       -0.09216933 -0.022881676 -0.0229434 -0.1516577
000170 6b f5 ff 3d b8 de 23 3d 4b df 30 3d 72 05 2c 3e
       0.12497982 0.040007323 0.0431817 0.16798952
000180 a2 f6 99 3d 49 92 d9 bd 6c 3e 56 bd fc d2 a2 3d
       0.075177446 -0.10623605 -0.052305624 0.07950398
000190 d6 1d 4e bd 03 ab 53 3d 14 7a 6f 3d d3 76 05 be
       -0.050321423 0.05167676 0.058466032 -0.13033609
0001a0 0c fc fc ba 96 01 9f bc ed ea cf bd 16 de 95 bc
       -0.001930119 -0.019409936 -0.101522304 -0.018294375
0001b0 15 6e de bd 75 d7 1f bd 06 64 ab bc 11 4b 80 3d
       -0.1086084 -0.039023835 -0.020921718 0.06264318
0001c0 7b ad 90 3c 1d cd 05 3d 37 58 00 be 5f 7a f4 3c
       0.017660847 0.032666314 -0.12533651 0.029843507
0001d0 6e b5 c3 3a 81 cb 16 be 9f db 92 3b b9 2f a3 bd
       0.001493139 -0.14726068 0.0044817473 -0.07968087
0001e0 1b fd 26 be 43 48 3f 3d 92 5d 72 bd 3c 7e 20 3d
       -0.1630749 0.046699774 -0.059171267 0.039182886
0001f0 95 a0 53 3b 96 c3 01 be fb 59 f5 bd cb 76 19 3d
       0.003229176 -0.12672266 -0.11980053 0.037466805
000200 58 17 99 3d 77 03 a2 bd e9 4f 23 3d 70 99 0f be
       0.074751556 -0.07910817 0.03987113 -0.14023376
000210 0d fc 9d 3d 6c 94 04 3d e5 c3 ad bd 10 b4 5f 3d
       0.077140905 0.03236811 -0.084846295 0.05461508
000220 f2 c9 f4 bd ae 22 9e 3d e2 35 96 bd ef f2 0b 3e
       -0.119525805 0.077214584 -0.07334496 0.1366689
000230 0e 03 da bd 41 71 c2 3d 9e a3 67 3c 15 07 12 be
       -0.10645114 0.09494258 0.0141381305 -0.14260514
000240 ba 5f 02 bd 3d 2e 10 3e c8 11 a6 3c de 82 27 bc
       -0.031829573 0.14080139 0.02027215 -0.010224072
000250 9c 3c f8 bd a9 9c 8e 3d 6a 9a c5 3d b2 e7 8a 3d
       -0.12120935 0.06963474 0.09648593 0.067824736
000260 fa e1 22 3e 88 29 f4 bc 0c 99 0f 3e 0f 8d cd bd
       0.15906516 -0.02980496 0.14023226 -0.100366704
000270 49 a6 f0 bc 38 25 ed 3d 53 d4 86 3c 3c 93 94 bc
       -0.029376166 0.115793645 0.016458666 -0.018136613
000280 8a 77 77 3d ac 44 ec bd ac 64 97 bd 70 a6 06 3c
       0.060416736 -0.115365356 -0.073922485 0.008218393
000290 79 35 05 3e e6 20 f9 bd 1b ef b6 bc 56 c9 2f 3e
       0.1300868 -0.12164478 -0.022330811 0.17166647
0002a0 f5 68 f6 bd 5d 29 6e bd 88 50 96 3d 70 c1 79 3d
       -0.12031738 -0.058144916 0.07339579 0.060975492
0002b0 ac c5 ce 3c 2f e7 14 3e 44 db 0c be b4 62 bf 3d
       0.025240742 0.14541315 -0.13755518 0.09344998
0002c0 c7 1a fb 3c 0b 72 90 3d 20 a4 e1 bc 02 e7 a1 bd
       0.030652417 0.07053002 -0.027544081 -0.07905389
0002d0 55 4f 9b bd fe 93 73 bd 85 1e b5 bd 1f 6b 24 3e
       -0.07583491 -0.05946731 -0.08843712 0.16056488
0002e0 c2 de 17 3e 4c d2 56 3d 4c 3a 65 bd 77 bd 1c 3d
       0.14831069 0.05244665 -0.0559638 0.038266625
0002f0 76 b7 83 3b d0 4f 06 3d 63 b3 b2 3d a1 3e 21 bd
       0.004019673 0.03279096 0.087256216 -0.03936637
000300 6d c6 8f 3d 53 28 02 3e d6 1e 48 3d 5c d9 92 bd
       0.070202686 0.12710695 0.048857532 -0.07170364
000310 00 4f b7 3d 31 01 4c bd 11 e7 be 3d d5 0c 0e 3e
       0.08950615 -0.049805824 0.09321416 0.13872083
000320 62 3a a6 bd ee 29 b3 bd 19 e4 41 bd ca 07 fb bc
       -0.081166044 -0.08748232 -0.04733667 -0.030643363
000330 87 3b 4f 3d 79 6e 69 bd df d1 07 be 11 13 f8 bd
       0.05059388 -0.05699012 -0.13263653 -0.12113012
000340 ce 06 65 3c 1a e2 1e be e2 11 03 ba 19 14 e2 bd
       0.013978673 -0.15515938 -0.0004999918 -0.110389896
000350 27 5c e9 bd a0 3e 17 bc 35 65 0e be 4d 79 9e bd
       -0.1139453 -0.00923124 -0.13905795 -0.0773798
000360 b8 67 c9 3d 05 ea 3c 3d fd 8a 2b bd 46 0f cb 3d
       0.09834236 0.046121616 -0.041880596 0.099150226
000370 5a 78 80 3d fd f0 63 bc 62 09 03 be ac e3 12 3e
       0.06272955 -0.013912437 -0.12796548 0.14344662
000380 32 7f ae 3d 56 a7 a0 3d d7 02 f2 3b a9 ad 4e 3d
       0.08520354 0.07844417 0.0073855924 0.050458584
000390 a0 12 00 3e 3b 13 80 bd f1 2e 01 3e 96 fb a2 bd
       0.12507105 -0.06253668 0.12615563 -0.079581425
0003a0 50 20 00 3e cb c6 e2 bc e5 0e 26 be 76 d3 63 bd
       0.12512326 -0.027682682 -0.1621662 -0.055621587
0003b0 96 c9 e4 3d 65 68 02 bd e9 ee a3 3d 1e 95 5a 3c
       0.11171262 -0.03183784 0.08004553 0.013341216
0003c0 1d 4c b8 3d 67 09 c6 3d 11 b3 13 3e 7c 92 1c 3e
       0.089988925 0.09669762 0.14423777 0.15290254
0003d0 89 11 99 3d a6 46 df bd 2b 94 af 3d 71 40 26 bd
       0.07474048 -0.10902147 0.08573183 -0.0405888
0003e0 ed 51 30 3d de 38 3e bc 6a d0 0c bd ec 68 31 bd
       0.04304688 -0.011610238 -0.034378447 -0.043312952
0003f0 10 93 de bc 99 de e0 3d e8 cd 27 3d be 4f 02 be
       -0.027169734 0.10979957 0.040967852 -0.12725732

lstm.bias_ih_l1 f4 [200]
000000 c7 83 d0 3c c6 98 02 3c 41 ea f6 3d f5 82 74 3d
       0.025453461 0.007970994 0.12056399 0.059695203
000010 2b b9 60 3d 48 af ad 3d 6b ab d9 ba b1 a4 62 bc
       0.05486409 0.08480698 -0.0016606873 -0.013833211
000020 f4 94 05 3c 93 b2 48 3d 4d 2d 58 bd 69 ff 93 bd
       0.008153189 0.048998427 -0.052777577 -0.0722645
000030 26 88 f1 bd 6d 89 2f 3d ad 4e c2 bd d6 ed 37 3d
       -0.117935464 0.04285567 -0.094876625 0.044904552
000040 75 7b 84 3c 55 fe b2 3d de f5 d6 bd 74 27 59 3d
       0.01617215 0.08739916 -0.10496114 0.05301614
000050 cb 2b 73 3b 01 be e2 bd 52 7f 28 bd 09 88 ba 3d
       0.003710496 -0.110713966 -0.041137047 0.09107978
000060 de 1b a1 bc eb 77 02 3d fd de 10 3e 38 40 22 3d
       -0.019666608 0.031852644 0.14147563 0.039612025
000070 d9 d1 e7 3d be 2f f4 bd f1 0b 54 bd cf 36 cb bc
       0.11319322 -0.119231686 -0.0517692 -0.024806408
000080 8f 32 75 ba 3e 3c c5 bd 84 fa d4 3d b3 7a 0d 3e
       -0.0009353542 -0.09630631 0.103993446 0.13816337
000090 4a e7 a8 bd 03 b8 93 3c 56 9f f2 bd 6d 58 62 bd
       -0.0824724 0.01803208 -0.11846797 -0.05526011
0000a0 f4 c0 82 bd a8 61 d3 bc 2f 2a a9 3c 99 08 eb bd
       -0.06384459 -0.025803402 0.020649998 -0.11476249
0000b0 3a 27 20 3d 48 b0 b7 bd 8b ab 3c bd 91 80 d0 bd
       0.03909991 -0.0896917 -0.046062034 -0.10180772
0000c0 c0 22 11 3d db 1f 8f 3c d8 48 ce 3d 98 ee b9 bd
       0.03543353 0.017471245 0.100724876 -0.09078711
0000d0 df be 74 bc 08 d1 61 3d 7b 78 01 be 29 15 d1 3d
       -0.014938085 0.05513099 -0.12643616 0.10209114
0000e0 fd 6d 88 bc 3c 32 0e 3d c4 2c 89 bc a9 b4 87 3d
       -0.016654009 0.034715876 -0.016744979 0.06626255
0000f0 04 de 58 bd 39 8e a5 bc a4 06 83 3c b9 58 6b 3d
       -0.052946106 -0.020209419 0.015994377 0.05745766
000100 81 2f 0d bd 95 53 50 bd 1f 18 5c 3c b7 38 7a bd
       -0.03446913 -0.05086096 0.013433485 -0.061089244
000110 36 26 cc 3d fa 0f 58 bd d7 a5 e7 3d 6c ad a1 bd
       0.09968226 -0.05274961 0.11310928 -0.07894406
000120 5f 50 7e bd 1a b6 fb bd 99 39 e9 3b 4c 49 a5 ba
       -0.062088367 -0.122905925 0.007117462 -0.0012610345
000130 0c d9 ae bc d5 a5 cf bd b5 fb 5e bd 7a fe 4f bd
       -0.02134373 -0.10139052 -0.054439265 -0.050779797
000140 fb 61 c0 bd 16 7e 38 3d f5 e9 aa 3d c9 ff 82 3d
       -0.09393688 0.04504212 0.08345405 0.063964434
000150 b2 22 b4 bd c4 68 cc bd 15 11 94 bd 54 0c 2c bd
       -0.0879568 -0.0998092 -0.07229821 -0.042003945
000160 81 15 da 3d 11 e3 72 bc 39 c5 41 3d 6e 15 9e 3c
       0.10648633 -0.014824645 0.047307227 0.019297328
000170 9b 91 a5 3d c6 77 44 bd 2c 21 a3 ba fb ba df 3d
       0.08084413 -0.047965787 -0.0012445799 0.109243356
000180 11 90 c4 3d 57 c4 34 3d 27 99 0f 3d 8e 02 18 3e
       0.09597791 0.044132557 0.035058167 0.14844725
000190 8f ff b3 3c cd 6e 8d 3d ba a8 f5 bb 3b 96 c5 3c
       0.021972446 0.06905899 -0.0074969204 0.024119487
0001a0 d4 27 47 3d fc c5 51 bd 3f 31 be bc 9b 6f ea 3d
       0.048621967 -0.051214203 -0.023216842 0.11447068
0001b0 ba f5 05 3e 9a 37 b9 3d 6f 13 1a bd a6 31 b4 3d
       0.13082018 0.09043808 -0.03761619 0.08798532
0001c0 64 b4 bb 3d 0e 10 e3 bc 8b 07 92 bc 8d 77 0d bc
       0.09165266 -0.027717616 -0.017825862 -0.00863446
0001d0 96 da ac bd 5c a1 93 3d 0f d8 9f 3d 9e bd ac 3d
       -0.084401295 0.07208511 0.07804882 0.08434604
0001e0 10 c2 1b 3d 18 fc 95 3d 8f 08 c1 3d e4 f4 c7 3d
       0.03802687 0.07323474 0.094254605 0.09763506
0001f0 e0 88 a4 bd 85 aa c8 3d c2 16 cf 3d 9a 44 ca bd
       -0.08033919 0.09798149 0.101117626 -0.09876366
000200 3c 23 9b 3d 0c cd 99 3d ec 68 d5 3c 71 f6 99 bd
       0.0757508 0.07509813 0.026051007 -0.07517708
000210 51 1a 0b 3e 6a 5d 94 3d 9a 43 ad 3c cb 8f 92 3d
       0.13584258 0.0724438 0.021150399 0.071563326
000220 02 dc 78 3d 00 b9 1c bd 60 da d6 3d e4 24 9f 3d
       0.06075669 -0.038262367 0.104908705 0.07770708
000230 98 f9 4d 3d 66 49 ce 3d 30 03 ef 3c 60 35 04 3e
       0.05028686 0.100725934 0.029176325 0.12910986
000240 c4 9a 96 bd 7d 31 30 bd b3 12 9f bd e1 49 b9 bc
       -0.07353738 -0.043015946 -0.077672385 -0.022618236
000250 30 52 01 3e f7 26 8b bd 24 83 f9 3d 29 8c 8a bd
       0.12629008 -0.06794541 0.12183216 -0.06765015
000260 07 9a 87 3d d6 f1 c0 bd a7 72 73 3d 02 cb 6c 3d
       0.06621175 -0.094211265 0.059435513 0.05781079
000270 a4 19 0f 3e fc a5 ce bd 54 93 99 bd 08 63 9b bc
       0.13974625 -0.10090253 -0.07498804 -0.01896812
000280 e2 98 ae 3c e0 ef 8c bd 76 e6 48 3d f1 35 1e bd
       0.021313135 -0.0688169 0.04904791 -0.03862566
000290 af 9b 0d be 26 2b 86 bd 4a 21 f9 bd b6 51 69 3d
       -0.1382892 -0.06551199 -0.121645525 0.05696269
0002a0 eb a6 b4 3b 6f 20 11 be 14 f2 b3 bd f3 e2 94 bd
       0.0055130622 -0.14172529 -0.08786407 -0.0726985
0002b0 d0 57 70 bd c7 48 88 bd 30 70 d0 bd ea ef c7 3d
       -0.058677495 -0.06654506 -0.10177648 0.09762557
0002c0 7e c9 86 bb 2d 2c 20 3d ed 48 18 be 6a 06 2d bd
       -0.004113375 0.03910463 -0.14871569 -0.042242445
0002d0 f8 d3 70 3c 09 48 a7 3d 63 56 d6 bd ba 09 8c bd
       0.014698975 0.081680365 -0.10465696 -0.06837793
0002e0 62 e7 c3 bd 19 ef 08 3e 38 f4 c4 3d 6c 6d a3 3d
       -0.09565617 0.13372459 0.096168935 0.07979855
0002f0 8c 3a cc 3d 6f 56 b4 bd 5f 64 d4 bd e8 b9 c2 3d
       0.099721044 -0.088055484 -0.10370707 0.09508115
000300 94 bb ba 3d 06 be 0b 3e 62 23 45 3d 7e 09 de bc
       0.09117809 0.13646707 0.048129447 -0.027104136
000310 e7 36 03 bd f4 5e 62 3d f8 fd 0d 3e 23 fc 79 bd
       -0.03203478 0.055266336 0.13866413 -0.061031472

lstm.bias_hh_l1 f4 [200]
000000 ef 7b ad bd a6 82 f9 bd c6 9d 38 bc 61 92 15 3d
       -0.08470904 -0.12183122 -0.011268085 0.03651655
000010 15 15 7e 3c 6d ba c8 bc 7e df 36 3d b6 0f 9d 3d
       0.015507956 -0.024502957 0.044646733 0.07669012
000020 36 ec 8b bb 9c 32 f3 bd 22 1d dd bd 24 db 41 bc
       -0.004270102 -0.11874887 -0.10796572 -0.011832032
000030 ef 5c 2d 3c 03 8c a0 bd 91 6a 0e 3e 48 fd de 3d
       0.010581239 -0.07839205 0.1390784 0.10888153
000040 b7 0b 83 3d 9f 6e be 3d 74 48 b3 bd e2 ff 9b bd
       0.06398719 0.09298443 -0.08754054 -0.07617165
000050 60 e9 28 bd 40 01 4b bd 0d 2f f6 bd 09 41 99 bd
       -0.04123819 -0.04956174 -0.12020693 -0.074831076
000060 c6 1e 8f ba 1e ac 09 3d e9 44 83 bd 36 e8 96 bd
       -0.0010919205 0.03361141 -0.06409628 -0.073685095
000070 7a fe ad 3d af f1 2d 3d e7 2b 9f bd 6a a0 ce bd
       0.08495803 0.042466816 -0.077720456 -0.1008919
000080 08 cc 01 3d 92 8e d0 3d 71 71 e7 bc 0e 98 9a 3d
       0.03168872 0.10183443 -0.028252335 0.075485334
000090 e8 90 e7 bd 62 60 ab bd 2a 94 dd 3d 00 38 40 3d
       -0.113069355 -0.08367993 0.10819276 0.046928406
0000a0 c4 49 1e bd 77 22 63 bc f2 c2 0a 3e c2 34 fa bd
       -0.038644567 -0.0138631975 0.13550928 -0.12217094
0000b0 ca 35 5f 3d 45 13 ef bc 89 02 2c bc af 21 13 3e
       0.054494657 -0.029183993 -0.010498651 0.14368318
0000c0 d0 97 b7 bd f1 44 b5 bd 51 84 66 bc 7d 6a eb bb
       -0.08964503 -0.0885104 -0.014069633 -0.0071843253
0000d0 2d 0e 73 3d cd ab 00 3e cf 39 22 bc f7 2b d7 3d
       0.05933969 0.12565537 -0.009901478 0.105064325
0000e0 e4 dc bd 3d f7 0f c4 3c 4e 3f 01 3d 2f 72 ef bc
       0.09270647 0.023933394 0.031554513 -0.029229252
0000f0 dd d6 0a 3e 8c 71 0b 3e 2a 74 8d 3d b5 4e 85 3c
       0.13558526 0.13617533 0.06906922 0.016272882
000100 3d dd cd bd cd fc 4e 3d 7c 10 c8 bd 38 c5 cd bd
       -0.100519635 0.05053406 -0.09768769 -0.10047382
000110 02 40 85 bd 43 79 6a 3c 15 8b 7a 3c 22 5d 99 3d
       -0.06506349 0.014311138 0.015291949 0.07488467
000120 d9 6b bf bd 29 d0 06 be 97 2e bf bb 0e ee 07 bd
       -0.09346742 -0.13165344 -0.0058344114 -0.03318601
000130 28 85 14 3e b7 8f e4 3d 78 76 89 3d be 01 c6 3d
       0.1450392 0.11160224 0.06712049 0.09668301
000140 c7 8f 72 bc f8 de 7a bd 2d 6e 42 bd 92 a7 86 bd
       -0.014804787 -0.061247796 -0.047468353 -0.0657493
000150 ed 44 98 3d 5b 00 e4 3c f4 da a8 bc de 8c fc 39
       0.074350215 0.0278322 -0.020612217 0.0004817014
000160 59 fd 4b 3d d1 d9 1c bd b2 88 c8 bd bd 80 b1 3d
       0.049802158 -0.038293663 -0.097916976 0.08667133
000170 21 33 c1 bd 35 f2 02 3e 09 90 ab bd 93 19 f7 3c
       -0.0943358 0.12787707 -0.08377082 0.030163562
000180 81 ba 9d 3d 87 99 d2 3d 42 22 18 bc 73 37 35 3c
       0.077015884 0.10283189 -0.009285511 0.011060583
000190 81 46 b4 3d 1f 19 01 3e 86 14 a9 3d 13 3a 7d bd
       0.0880251 0.12607239 0.08255868 -0.061822962
0001a0 c6 29 ee 3d 10 75 5f 3d d3 21 d2 3c 05 cf bc 3d
       0.116290614 0.054555 0.025650894 0.09219173
0001b0 92 14 0c 3e 78 c6 1b be d4 a2 07 be 1f a1 f9 3d
       0.13679722 -0.15212429 -0.13245708 0.121889345
0001c0 40 b2 dc bc 9c 69 a9 3d 13 57 a7 bd f5 81 bf bd
       -0.026940465 0.082720965 -0.08170905 -0.09350959
0001d0 4b 9b 8c 3d 3c 94 dc bd 05 75 9d 3d 5a 85 f4 bc
       0.06865557 -0.10770461 0.07688335 -0.029848743
0001e0 00 0c 9e bc 0e c2 08 be 6b 28 3b bd 8a 43 ea 3d
       -0.019292831 -0.13355276 -0.045692842 0.11438663
0001f0 42 c1 1c 3d 57 b9 54 bd b7 68 80 3d f9 a9 6c 3d
       0.038270243 -0.051934566 0.06269973 0.057779286
000200 35 db 0f 3d 52 82 f2 bd 8f 10 0c 3e b5 99 0c be
       0.03512116 -0.11841263 0.13678192 -0.1373051
000210 2c af dc bd 7a 6b 03 3d 73 33 06 bd 23 87 bb 3d
       -0.10775599 0.03208492 -0.03276391 0.09156635
000220 43 2f b2 3d a8 57 16 be 08 c9 aa 3d c1 83 35 3d
       0.08700421 -0.14681876 0.08339125 0.044315103
000230 22 63 06 3d d0 76 70 3d b8 27 57 3d 27 8d ee 3d
       0.032809384 0.05870706 0.052528113 0.116480164
000240 18 d2 a4 bd 8b b1 f6 bc cb 13 c5 3d 4f c8 3d bc
       -0.08047885 -0.030113956 0.09622916 -0.011583402
000250 eb a1 ab 3c 56 68 3e 3d 6e 10 09 3e b1 89 c2 bd
       0.020951232 0.04648622 0.13385174 -0.09498919
000260 3c 98 5a bd 3d 19 c7 bc d5 bc 02 3e 64 94 90 bd
       -0.05336784 -0.024304027 0.12767346 -0.07059553
000270 d9 1e ec 3c 7a f1 8d 3d 30 a1 e2 bc d9 e8 84 bd
       0.028823303 0.069308236 -0.02766475 -0.06489725
000280 32 5e 8b bd 69 35 fb bd 47 11 24 3d 2a 5d f5 3d
       -0.06805076 -0.122660466 0.04005554 0.1198066
000290 ee 0f b5 3c be 13 b5 3d 2c fc c6 3b e3 65 b1 3d
       0.022102322 0.08841656 0.0060725417 0.086620115
0002a0 d3 ab a9 3c ba fe 9c bd 76 ca d0 3d 37 a9 33 bc
       0.020711815 -0.07665773 0.10194866 -0.010965637
0002b0 23 f2 7a bc ab 42 68 bd bf be 84 3d be f3 03 3d
       -0.015316519 -0.056704205 0.064816944 0.032214873
0002c0 f9 70 69 bd 67 b7 88 bd f7 24 1b be cd 72 15 3d
       -0.056992505 -0.06675606 -0.1515082 0.036486436
0002d0 42 e5 0b 3e 4b 29 b1 3d 4c cd 0e bd 32 c3 de 3d
       0.13661674 0.08650454 -0.034863755 0.10877074
0002e0 32 38 9e 3d ee 95 83 3d 9d 18 ef 3b 98 e1 e9 3d
       0.07725562 0.06425081 0.0072966353 0.11419982
0002f0 b5 a3 f2 3d 0b c5 1f 3d 59 34 ac 3d aa a3 f0 3d
       0.11847631 0.039006274 0.08408422 0.117499664
000300 06 db f9 bd 5c 5d 80 bd 27 de c4 bd fd 8d 05 3e
       -0.121999785 -0.06267807 -0.09612685 0.13042445
000310 63 bd 8b 3d e6 17 bf bb 30 7f ed bd ab a0 e6 3d
       0.06823232 -0.0058317063 -0.11596525 0.11261114
